training/checkpoints/fold_2/best-checkpoint.ckpt (torch, 358546 bytes, 26 tensors)

conv1.0.weight f4 [64, 60, 3]
0	0x3d432f6f	0.047652658
1	0x3d9e3012	0.077240124
2	0xbcd06193	-0.025437152
3	0xbcd82612	-0.02638534
4	0x3d5f8f41	0.054579977
5	0x3c381a5f	0.011236756
6	0x3cabc412	0.020967517
7	0x3d8243ea	0.0636061
8	0x3d4d864e	0.05017691
9	0xbc5cd6c4	-0.0134789385
10	0xbc462625	-0.012094055
11	0xbc5d40d4	-0.013504226
12	0xbda21d50	-0.07915747
13	0x3ac8f22a	0.001533096
14	0x3c700487	0.014649517
15	0xbc9353ef	-0.017984359
16	0xbd119d9f	-0.03555071
17	0xbc5bfc3c	-0.013426837
18	0xbd963a93	-0.07335391
19	0xbd26a868	-0.04068795
20	0xbc4ab3a5	-0.012371932
21	0x3cee7e01	0.029112818
22	0x3cfee4b6	0.031114917
23	0x3ce8d796	0.028423112
24	0xbd922f76	-0.07137959
25	0x3daab498	0.08335227
26	0xbd201529	-0.03908268
27	0xbd1e0bdc	-0.03858553
28	0x3d9264f9	0.07148165
29	0x3cea3632	0.028590295
30	0xbd831ad4	-0.064016014
31	0x3d9ae9b0	0.075641036
32	0xbd7671f3	-0.060167264
33	0xbde9d449	-0.11417443
34	0xbd067393	-0.032825064
35	0x3d2de76c	0.04245703
36	0x3d225777	0.039634194
37	0x3da39fc9	0.07989461
38	0xbcc9f600	-0.024653435
39	0xbd3ada1a	-0.045618154
40	0x3d36ca8e	0.044626765
41	0x3d4fd6e5	0.05074205
42	0xbd4874b1	-0.04893941
43	0x3ca0f750	0.019649178
44	0xbd36560d	-0.04451566
45	0x3d6174e3	0.055043112
46	0xbcb11c50	-0.021619946
47	0xbd43acd9	-0.047772262
48	0x3c4c2074	0.012458909
49	0xbd037c0c	-0.032100722
50	0x3d5d07f6	0.05396267
51	0xbc9ad5e0	-0.018900812
52	0x3cc6e7f8	0.024280533
53	0xbccca1f1	-0.024979563
54	0xbce45126	-0.027870726
55	0xbc89f368	-0.016839698
56	0xbac4fea6	-0.0015029504
57	0x3da14a5d	0.07875512
58	0x3c1e84ee	0.009675248
59	0x3d26390f	0.04058176
60	0x3c4c56bd	0.012471852
61	0x3cec1e31	0.02882299
62	0xbd33a65e	-0.043859832
63	0xbd42b62f	-0.047537025
64	0x3d478494	0.04871042
65	0xbcc392a0	-0.023873627
66	0x3d87bbe0	0.06627631
67	0x3d7aacef	0.06120008
68	0xbd1b2c2e	-0.03788393
69	0x3a7315cf	0.0009272964
70	0x3d27a06a	0.040924467
71	0xbcb23898	-0.021755502
72	0x3ca16298	0.019700333
73	0x3c954c45	0.018224845
74	0x3c5add19	0.013358378
75	0x3d7f5678	0.062338322
76	0x3da05061	0.07827831
77	0xbcd146e2	-0.025546495
78	0xbd446cda	-0.04795537
79	0xbc3a066c	-0.01135407
80	0x3d460ac8	0.048350126
81	0xbd11dc7a	-0.035610653
82	0x3d90a905	0.07063488
83	0xbcec22c2	-0.028825168
84	0x3bdb22bd	0.0066874907
85	0xbd381c12	-0.044948645
86	0x3b834f66	0.0040072678
87	0xbd637f69	-0.05554143
88	0x3ced9017	0.028999371
89	0xbc0daac2	-0.008646669
90	0xbd1f1f69	-0.038848314
91	0x3db1fb1f	0.08690476
92	0xbd8bd9a7	-0.06828623
93	0xbd2c4b60	-0.04206407
94	0xbcda43ba	-0.026643623
95	0x3d02ddfc	0.031949982
96	0xbbd4f18b	-0.0064985207
97	0xbd539b9a	-0.051662065
98	0x3d033824	0.03203596
99	0xbd14b6c3	-0.036307108
100	0x3dc8d020	0.09805322
101	0x3d41306d	0.047165323
102	0xbd919608	-0.07108694
103	0x3d848ae3	0.06471803
104	0x3dad7f88	0.0847159
105	0xbd4165db	-0.047216278
106	0x3c075695	0.008260389
107	0x3db3c95a	0.08778639
108	0xbd255f27	-0.040373947
109	0xbc9f5bf3	-0.019453024
110	0xbd47fd68	-0.04882565
111	0xbca60ca3	-0.020269698
112	0xbd0f6fc4	-0.035018697
113	0x3d06467a	0.032782055
114	0x3cc9e767	0.024646474
115	0xbcb64a97	-0.022252364
116	0xbd2c0e52	-0.042005844
117	0x3d14257e	0.036168568
118	0xbcadfc1d	-0.021238381
119	0xbd4b0450	-0.04956466
120	0xbcdac463	-0.026704973
121	0x3d44f30a	0.048083343
122	0xbcf88e91	-0.030341418
123	0xbd334a1f	-0.04377186
124	0x3dbae575	0.09125797
125	0xbc73ff01	-0.014892341
126	0x3ca25740	0.019816995
127	0x3d8616bc	0.06547305
128	0x3ceedcee	0.029158082
129	0xbd06fc8c	-0.03295569
130	0xbd0ed977	-0.03487536
131	0xbd917271	-0.07101906
132	0xbcdcd0ba	-0.026954997
133	0x3d17cf68	0.037063032
134	0x3cf165e6	0.029467534
135	0x3d3e7258	0.046495765
136	0xbd9318d1	-0.07182468
137	0xbcc3fe08	-0.023924842
138	0x3d2de71b	0.042456727
139	0x3b601ff7	0.003419874
140	0xbda4c6b1	-0.0804571
141	0x3db0d382	0.08634092
142	0x3d50cb8f	0.05097538
143	0x3ca3aba9	0.019979315
144	0x3ce689da	0.028141905
145	0x3d4dfd99	0.050290678
146	0xbb83ab5c	-0.0040182304
147	0xbc8a8ce8	-0.016912892
148	0x3d186f7a	0.037215687
149	0xbb5849c9	-0.0033002964
150	0x3ce2a401	0.027666094
151	0xbc504bc5	-0.012713377
152	0xbd26eaf6	-0.04075142
153	0x3d1595bc	0.03651975
154	0xbd9c2b9d	-0.07625506
155	0xbc71d1f2	-0.0147595275
156	0x3d432130	0.047639072
157	0x3afd1b8e	0.001931058
158	0xbd617409	-0.0550423
159	0xbc89b532	-0.016810033
160	0x3d708204	0.058717743
161	0xbd4b1d41	-0.049588446
162	0x3d284135	0.04107781
163	0x3d11c8f2	0.035592027
164	0x3d171053	0.036880802
165	0x3d8739c4	0.06602815
166	0xbc2ca67e	-0.010537742
167	0x3c1c3a62	0.009535404
168	0x3d1d33b7	0.038379397
169	0xbb860258	-0.004089635
170	0x3c1678f2	0.009184109
171	0xbc55ea9d	-0.013056424
172	0x3d34e70e	0.044165663
173	0x3d820393	0.06348338
174	0x3d110dc0	0.035413504
175	0x3d490a96	0.04908236
176	0xbc2f7517	-0.010709069
177	0xbd5dfd67	-0.05419674
178	0x3d6c26d7	0.057654228
179	0xbd1ce56d	-0.038304735
180	0x3c914832	0.01773462
181	0xbb8638e2	-0.0040961364
182	0xbcbcb8fa	-0.023037422
183	0x3d88ae17	0.0667383
184	0xbd246414	-0.040134504
185	0xbb529829	-0.0032134152
186	0xbd0daf09	-0.034590755
187	0x3cd0681d	0.02544027
188	0xba85eb9f	-0.0010217315
189	0xbc01bf92	-0.007919209
190	0x3cecd8e4	0.028912015
191	0xbd89556f	-0.06705748
192	0xbc62c148	-0.013840027
193	0x39d1f3cf	0.00040045238
194	0x3c2a26db	0.01038524
195	0xbd1588a6	-0.03650727
196	0x3d9d4488	0.07679087
197	0x3d615018	0.055008024
198	0xbc7ca7a1	-0.015420825
199	0x3d26390f	0.04058176
200	0xbd1fb0ec	-0.038987085
201	0x3bfb3f01	0.0076674228
202	0x3d7937e9	0.060844336
203	0xbd42412a	-0.047425427
204	0x3b8186bb	0.0039528287
205	0xbd33cd7c	-0.043897137
206	0xbc658420	-0.014008552
207	0x3c201ffe	0.0097732525
208	0x3d9140b9	0.07092423
209	0x3ce1c467	0.027559472
210	0x3d42d908	0.04757026
211	0x3d426576	0.047460042
212	0x3d494566	0.04913845
213	0x3c89b315	0.016809026
214	0x3c885c31	0.016645523
215	0x3d2a4e8d	0.041578818
216	0x3b46ec62	0.0030353297
217	0x3d46fcde	0.048580997
218	0x3cdcb97f	0.02694392
219	0xbd0347a4	-0.032050744
220	0xbd2aa644	-0.04166247
221	0x3be0977c	0.006853996
222	0x3d38082c	0.04492967
223	0x3d5eee87	0.054426696
224	0xbceb9d9e	-0.028761681
225	0xbd495c85	-0.0491605
226	0xbb842858	-0.0040331297
227	0xbd04a9b9	-0.032388423
228	0x3d878abe	0.0661826
229	0xbd2bde7c	-0.041960225
230	0xbc654141	-0.0139926085
231	0x3aef5fc6	0.0018262796
232	0x3d3b2f51	0.04569942
233	0x3b66ffd4	0.00352477
234	0x3c2d9be1	0.010596246
235	0xbd1dcf58	-0.038527817
236	0x3bb8d9af	0.0056411843
237	0xbd8d6acf	-0.06905138
238	0x3d6b4767	0.05744114
239	0xbd28000c	-0.04101567
240	0xbd5691dd	-0.0523852
241	0x3d5e9dd4	0.054349735
242	0x3d4c6fba	0.04991124
243	0xbc1e62bf	-0.009667098
244	0x3a9b732c	0.0011859885
245	0xb98dc478	-0.00027039996
246	0x3d2bfbfe	0.041988365
247	0xbd1a87fa	-0.037727334
248	0x3cdd6de5	0.02702994
249	0xbd094ed2	-0.033522435
250	0xbcf544fc	-0.02994012
251	0x3cac4557	0.021029158
252	0xbc8ebb8a	-0.01742341
253	0x3d81b970	0.063341975
254	0x3c95407d	0.018219227
255	0x3d61bbed	0.05511086

conv1.0.bias f4 [64]
0	0x393d5ce6	0.00018059052
1	0x384433bd	4.6778227e-05
2	0x38507cea	4.97074e-05
3	0xb9853cbc	-0.00025412987
4	0xbb1249e5	-0.0022321877
5	0xb8431cc8	-4.6518428e-05
6	0xbc563e0e	-0.013076318
7	0x3c36dbe5	0.011160825
8	0xbc45bb37	-0.012068561
9	0xbbb42907	-0.005498055
10	0xbab5305e	-0.0013823619
11	0xbb8718a8	-0.0041228123
12	0xb7eba6c1	-2.8091834e-05
13	0xb9932a9c	-0.0002806977
14	0xbb0c9759	-0.0021452515
15	0xb652ed2c	-3.143049e-06
16	0xb853aecc	-5.0469112e-05
17	0x373d73f2	1.12922735e-05
18	0xb830c4ad	-4.214484e-05
19	0xb991f55d	-0.00027839365
20	0x3694b626	4.4319486e-06
21	0x393b5713	0.00017866147
22	0x3873612e	5.802622e-05
23	0xb892d0b9	-7.0007e-05
24	0xb8c33df5	-9.309865e-05
25	0xb98ffd41	-0.00027463774
26	0x3c5d11c6	0.013493007
27	0x37201c23	9.543294e-06
28	0x3bfb8ff4	0.0076770727
29	0x3840ab75	4.593605e-05
30	0xbc51740f	-0.012784018
31	0x3b01f008	0.0019826908
32	0xb8829471	-6.2265324e-05
33	0x3a2f6a61	0.0006691572
34	0x38fa1241	0.00011924329
35	0xbb85456e	-0.0040671146
36	0x3880db49	6.144361e-05
37	0xb710b9a2	-8.62629e-06
38	0xbbc4b8bd	-0.006003468
39	0xb7c5151a	-2.3494056e-05
40	0xb94c20cc	-0.00019467174
41	0x3c46ddc7	0.012137837
42	0xb94b645e	-0.00019396978
43	0x36816f71	3.857473e-06
44	0x39836942	0.0002506469
45	0x39575b3e	0.00020537988
46	0xb980eee1	-0.0002459204
47	0xb8e493c5	-0.000108994114
48	0x36e42f0c	6.8004065e-06
49	0x3850367a	4.96418e-05
50	0xb65b50d0	-3.2680582e-06
51	0x387e4cf7	6.063e-05
52	0xb941c09f	-0.00018477671
53	0x38224b12	3.8693724e-05
54	0x3973d3a6	0.00023253131
55	0xba4ab1b4	-0.00077321683
56	0x3903e51c	0.00012578483
57	0x38925abd	6.978724e-05
58	0x3c13bfe4	0.009017918
59	0x3aa01182	0.0012212249
60	0x382378bf	3.8974682e-05
61	0x385f3aee	5.3222226e-05
62	0xb85faffa	-5.3331234e-05
63	0xb756c75d	-1.2801812e-05

conv1.1.weight f4 [64]
0	0x3f82b7b1	1.0212308
1	0x3f834d4e	1.0257967
2	0x3f8526f9	1.0402519
3	0x3f82b7a6	1.0212295
4	0x3f848169	1.0351993
5	0x3f860e6e	1.0473154
6	0x3f82057f	1.0157927
7	0x3f8415b7	1.0319127
8	0x3f801601	1.0006715
9	0x3f867273	1.0503677
10	0x3f83aec3	1.0287708
11	0x3f82cfb8	1.0219641
12	0x3f82c50d	1.0216385
13	0x3f885395	1.0650507
14	0x3f849337	1.0357426
15	0x3f836154	1.0264077
16	0x3f83de7e	1.0302274
17	0x3f850cf3	1.0394577
18	0x3f83ff52	1.0312293
19	0x3f85456c	1.0411811
20	0x3f823496	1.0172298
21	0x3f851a7c	1.0398707
22	0x3f80827e	1.0039823
23	0x3f817cfe	1.011627
24	0x3f839d9c	1.0282474
25	0x3f829d21	1.0204202
26	0x3f87fa58	1.0623274
27	0x3f83469a	1.0255921
28	0x3f819e85	1.0126501
29	0x3f81548c	1.0103927
30	0x3f7e87bf	0.9942588
31	0x3f7f8b08	0.9982152
32	0x3f837e04	1.0272832
33	0x3f805e19	1.0028716
34	0x3f865e3c	1.0497508
35	0x3f87a7c1	1.059807
36	0x3f843c8f	1.0330981
37	0x3f8517bf	1.0397872
38	0x3f81cf21	1.0141336
39	0x3f82b475	1.0211321
40	0x3f86504a	1.0493252
41	0x3f853801	1.0407716
42	0x3f8298e9	1.0202914
43	0x3f838592	1.0275137
44	0x3f84186c	1.0319953
45	0x3f84c5b6	1.0372837
46	0x3f801b3c	1.0008311
47	0x3f83cc6c	1.029676
48	0x3f82e468	1.0225954
49	0x3f80a8bf	1.0051497
50	0x3f8364a5	1.0265089
51	0x3f82ff2d	1.0234123
52	0x3f86bb62	1.0525935
53	0x3f86a670	1.0519543
54	0x3f8521c9	1.0400935
55	0x3f846087	1.0341958
56	0x3f85d812	1.0456564
57	0x3f89b5a9	1.0758563
58	0x3f8708b7	1.0549535
59	0x3f81cdd5	1.014094
60	0x3f7f9d3e	0.9984931
61	0x3f7f58c1	0.997448
62	0x3f822be5	1.0169646
63	0x3f80b07d	1.005386

conv1.1.bias f4 [64]
0	0x3d72cb7f	0.0592761
1	0x3c1ca880	0.009561658
2	0xbd9037cc	-0.070418924
3	0xbd56a5df	-0.05240428
4	0x3da59566	0.08085136
5	0x3db97250	0.090550065
6	0x3d663adc	0.056208476
7	0xbd85667f	-0.0651369
8	0xbd99b470	-0.07505119
9	0x3d3a9024	0.04554762
10	0x3d063e8b	0.03277449
11	0xbd9aea17	-0.0756418
12	0xbd7e6561	-0.0621084
13	0x3dd9f658	0.106426895
14	0x3d02805c	0.031860694
15	0xbd549634	-0.051901057
16	0xbd828df8	-0.06374735
17	0xbd858710	-0.06519902
18	0xbd87d937	-0.06633227
19	0xbcef1837	-0.029186351
20	0x3d43b592	0.04778058
21	0xbd8edbc8	-0.06975514
22	0xbd2c1ac2	-0.042017706
23	0xbd6954b3	-0.05696554
24	0xbd8d7860	-0.06907725
25	0xbd8af5c7	-0.067851596
26	0xbd5e4a1e	-0.054269902
27	0xbcded2f7	-0.027200205
28	0xbbd2738f	-0.006422467
29	0xbda6057e	-0.08106516
30	0xbd72def0	-0.05929464
31	0xbd8de30e	-0.06928073
32	0xbd0982c4	-0.033571973
33	0xbcdac39e	-0.026704606
34	0xbd9a84cd	-0.07544861
35	0x3d5022e3	0.05081452
36	0xbd9004cc	-0.07032165
37	0xbd7294c3	-0.0592239
38	0xbd45d64a	-0.048300065
39	0xbd8ad0e0	-0.06778121
40	0xbce56c69	-0.028005796
41	0xbc5bb73a	-0.013410384
42	0xbd81184d	-0.06303463
43	0x3bc759e8	0.0060837157
44	0xbd7d9622	-0.061910756
45	0xbd51c030	-0.051208675
46	0x3d0f3a9c	0.034968004
47	0xbdada012	-0.084777966
48	0xbd8c3ce7	-0.06847554
49	0xbd919084	-0.07107642
50	0xbcab21c2	-0.02089012
51	0x3d3da972	0.046304174
52	0xbd68a634	-0.05679913
53	0xbd3221d4	-0.043489292
54	0xbd79099e	-0.060800187
55	0xbd65e107	-0.056122806
56	0xbd9def38	-0.07711643
57	0xbd5d6f82	-0.05406142
58	0xbc9dee84	-0.019278772
59	0xbd92ec76	-0.071740076
60	0xbd6a314a	-0.057175912
61	0xbd9317a6	-0.07182245
62	0xbc41578a	-0.011800656
63	0xbd8cd0de	-0.06875776

conv1.1.running_mean f4 [64]
0	0xc033c50c	-2.8089018
1	0xbf89b4ee	-1.075834
2	0x4038fc01	2.890381
3	0xb9d11a00	-0.00039882958
4	0xbfe510e3	-1.7895778
5	0xc07519d4	-3.8297014
6	0xbf555ade	-0.8334178
7	0x40149f2a	2.3222146
8	0x3fd38a52	1.6526587
9	0xbe0dd9f6	-0.13852677
10	0xbed4694b	-0.41486582
11	0x3fb68d55	1.4261881
12	0x3f9415da	1.1569169
13	0xc0785dca	-3.8807244
14	0xbf6b3798	-0.91881704
15	0x3f0fad98	0.5612426
16	0x3fa741b2	1.3066924
17	0x3fa63604	1.2985234
18	0x3f17eb6e	0.5934361
19	0x3f6adf5c	0.9174707
20	0xbf7b1806	-0.9808353
21	0x405b36d4	3.4252214
22	0x3f47c068	0.78027964
23	0x3f693703	0.91099566
24	0x4004cdf3	2.0750701
25	0x3ff0cbc6	1.8812187
26	0x3fc6e6f4	1.5539231
27	0x3f35a6a8	0.7095742
28	0x3ece3ba6	0.40279883
29	0x3fa3b352	1.2789099
30	0x3f859ec0	1.0439072
31	0x3fc24dc2	1.517998
32	0xbe31ab06	-0.17350397
33	0x3f37caba	0.7179371
34	0x40646116	3.5684257
35	0xc09037b7	-4.506801
36	0x4020cee5	2.5126278
37	0x3f550a64	0.8321898
38	0x3f874afa	1.0569756
39	0x400894ee	2.13409
40	0x3f8fbba9	1.1229144
41	0x3ff9db39	1.9520026
42	0x400a7c46	2.163835
43	0x3fbdeabe	1.4837263
44	0x3fdff3bf	1.749626
45	0x3f0be8dd	0.54652196
46	0xc03261d4	-2.787221
47	0x4059c410	3.4025917
48	0x3f881d68	1.0633974
49	0x3fffee1c	1.999454
50	0x3ecd0a88	0.40047097
51	0xbf20b59b	-0.6277711
52	0x40303c2c	2.7536726
53	0x4008675c	2.1313086
54	0x3f9166d9	1.1359512
55	0x3f376bc6	0.71648824
56	0x40463db7	3.0975168
57	0x3f5592d2	0.83427155
58	0x3f3af471	0.7302924
59	0x400b9ed5	2.1815693
60	0x4009c893	2.152867
61	0x4053257f	3.2991636
62	0xbc180060	-0.009277433
63	0x3f9c0085	1.2187659

conv1.1.running_var f4 [64]
0	0x43cb8701	407.05472
1	0x43169d99	150.61562
2	0x43713be2	241.23392
3	0x44c4440f	1570.1268
4	0x435306c2	211.0264
5	0x43a65a04	332.70325
6	0x44ce8739	1652.2257
7	0x4372b225	242.69588
8	0x44f63c54	1969.8853
9	0x432a1cb4	170.11212
10	0x42d64d25	107.15067
11	0x446d2c7e	948.6952
12	0x448b4988	1114.2979
13	0x4327f8a3	167.97124
14	0x44c8ef0e	1607.4705
15	0x44c83dc8	1601.9307
16	0x4374e0a5	244.87752
17	0x443318cf	716.38763
18	0x44ec18ae	1888.7712
19	0x43cc66f4	408.80432
20	0x43a98111	339.00833
21	0x43998c95	307.0983
22	0x4423efed	655.74884
23	0x450c0be6	2240.7437
24	0x44332961	716.64655
25	0x449e483d	1266.2574
26	0x435cb873	220.7205
27	0x43460f74	198.06036
28	0x44f4812d	1956.0367
29	0x43e9f35b	467.9012
30	0x4447b743	798.86346
31	0x44a614bd	1328.6481
32	0x4321a169	161.63051
33	0x450ff752	2303.4575
34	0x43437cc2	195.48734
35	0x434ba35f	203.63817
36	0x4413b8b6	590.8861
37	0x433d5435	189.32893
38	0x441896ac	610.35425
39	0x444a818a	810.02405
40	0x434cc31a	204.76212
41	0x43494185	201.25594
42	0x44a2fdc0	1303.9297
43	0x434751c7	199.31944
44	0x444ab556	810.8334
45	0x442fc792	703.1183
46	0x443a6b0d	745.67267
47	0x4412cb16	587.1732
48	0x44666221	921.53326
49	0x44197816	613.87634
50	0x44bdce81	1518.4532
51	0x44d7f04d	1727.5094
52	0x4374b585	244.70906
53	0x4339af74	185.68536
54	0x4352de82	210.86917
55	0x43842d70	264.35498
56	0x433e7520	190.45752
57	0x43450a53	197.04033
58	0x4356799e	214.47507
59	0x44f03566	1921.6687
60	0x4480c0db	1030.0267
61	0x443cc791	755.1182
62	0x43806e2c	256.86072
63	0x44902e5b	1153.4486

fc1.0.weight f4 [128, 128]
0	0xbd22b4b5	-0.039723117
1	0xbc7facd8	-0.015605174
2	0x3d8d6482	0.06903936
3	0x3d67a1a5	0.05655064
4	0xbde601cb	-0.11230811
5	0xbc1e1f7d	-0.009651062
6	0xbdca2897	-0.09871023
7	0x3cd7c7a6	0.026340317
8	0x3c934f8b	0.017982265
9	0x3a46fddb	0.0007590928
10	0xbcf3b98d	-0.029751563
11	0x3d9b0504	0.07569316
12	0x3c141632	0.009038495
13	0xbd9c822a	-0.07642014
14	0xbb916063	-0.004436539
15	0xbd0f07ea	-0.034919657
16	0x3d61980e	0.05507665
17	0xbdc4de64	-0.0961273
18	0x3dad7248	0.08469063
19	0xbdba6dec	-0.09102997
20	0x3d7719f4	0.060327485
21	0xbcfd80c9	-0.030945199
22	0xbd5099e4	-0.05092801
23	0xbdca7611	-0.09885801
24	0xbd46f058	-0.048569053
25	0xbc2fce3c	-0.010730322
26	0x3d525121	0.0513469
27	0x3d74b8c2	0.05974651
28	0x3b5ada1e	0.0033394168
29	0x3d94e68f	0.07270538
30	0x3d87a084	0.06622413
31	0x3d6aaec1	0.057295565
32	0xbcc574a9	-0.02410348
33	0xbc0989d1	-0.008394674
34	0xbc8cb8b9	-0.017177926
35	0xbd32ff49	-0.04370049
36	0xbde95df1	-0.11394871
37	0xbdc74d62	-0.097315565
38	0xbc86a6e8	-0.016437009
39	0x3d186b9a	0.03721199
40	0xbd7d6b6b	-0.06187002
41	0xbd1c06d5	-0.038092453
42	0xbd1f6e62	-0.03892363
43	0xbd953bb8	-0.07286781
44	0x3cbbd3a8	0.022928074
45	0xbd92dc83	-0.071709655
46	0xbc5f426d	-0.013626677
47	0xbc59baa6	-0.013289129
48	0xbd38370f	-0.044974383
49	0xbdcbf6ae	-0.0995916
50	0x3c5b123f	0.013371049
51	0x3d112248	0.035433084
52	0x3c6756e2	0.014119836
53	0x3bf54de8	0.007486094
54	0xbd479379	-0.048724625
55	0x3d6e96fb	0.058249455
56	0x3d826ad0	0.06368029
57	0x39f08eb4	0.0004588269
58	0xbd89ffb9	-0.06738228
59	0xbda838e3	-0.08213975
60	0xbdd082de	-0.10181211
61	0x3d15ff86	0.03662064
62	0xbdc2fceb	-0.095208965
63	0xbd7e6953	-0.062112164
64	0xbd98fcd0	-0.07470095
65	0xbdc296ac	-0.09501395
66	0x3ce777ae	0.02825531
67	0xbdd6d873	-0.10490503
68	0xbdcc22d1	-0.09967578
69	0xbae64ddc	-0.0017570811
70	0x3cb7d842	0.022441987
71	0x3cfba3ee	0.030717816
72	0xbb253bee	-0.0025212723
73	0xbd64e477	-0.055881944
74	0xbd763bad	-0.060115505
75	0xbcd739f7	-0.026272757
76	0x3c99b3e5	0.018762538
77	0x3bfbef96	0.007688473
78	0x3b86d1a6	0.0041143475
79	0xbd13304d	-0.035934735
80	0x3be888a1	0.0070963656
81	0x3d04ade5	0.0323924
82	0xbd0201d1	-0.031740014
83	0xbd0da8f8	-0.03458497
84	0x3d105005	0.035232563
85	0x3cec568d	0.028849864
86	0xbd7f02c9	-0.062258516
87	0xbcc5f823	-0.024166172
88	0xba903fae	-0.0011005306
89	0xbd926480	-0.07148075
90	0xbd8253b5	-0.06363622
91	0x3d16c898	0.036812395
92	0xbd50d981	-0.050988678
93	0xbda03994	-0.07823482
94	0x3d53afdf	0.051681396
95	0x3cb619bb	0.022229066
96	0x3cf9d5d3	0.030497467
97	0xbda59feb	-0.080871426
98	0xbd9a3898	-0.07530326
99	0x3c81f98a	0.01586606
100	0xbd1880c7	-0.037232187
101	0x3d71be21	0.05901921
102	0x3d9f06ec	0.07764992
103	0xbd043c4d	-0.03228407
104	0xbdce3f3c	-0.10070655
105	0x3d279ba5	0.04091992
106	0xbd2b659c	-0.04184495
107	0xbd2cbc64	-0.04217185
108	0xbcf972ba	-0.030450214
109	0xbc63620c	-0.013878357
110	0x3d463e4c	0.048399255
111	0xbd8c90dc	-0.06863567
112	0x3c981d05	0.018568525
113	0x3c5f7fe2	0.0136413295
114	0xbe099fe8	-0.13439906
115	0xbd7547fb	-0.0598831
116	0x3d184cad	0.0371825
117	0x3d30fb14	0.043208197
118	0x3ba1c09e	0.004936292
119	0xbc4fbe36	-0.012679627
120	0xbdaf3cf7	-0.0855655
121	0x3d2b051b	0.041752916
122	0xbcea1b9d	-0.02857762
123	0xbdd69eac	-0.10479483
124	0xbd7d58bb	-0.061852198
125	0xbdae41ba	-0.0850863
126	0x3d55d1af	0.052201923
127	0x3d322241	0.0434897
128	0xbd87f0ce	-0.06637727
129	0x3d3b46ee	0.04572194
130	0xbd763b5a	-0.060115196
131	0x3de5c1cc	0.112186044
132	0xbc6df7d0	-0.014524415
133	0xbd74bfb3	-0.05975313
134	0xbd91924e	-0.071079835
135	0x3d9ace45	0.07558874
136	0xbc84b9f7	-0.016201956
137	0x3bdc3c57	0.0067210603
138	0x3d8a673f	0.06757974
139	0x3c907381	0.017633202
140	0xbcd1918a	-0.025582094
141	0x3d46b8c3	0.048516046
142	0xbd4d26c7	-0.05008581
143	0x3ba2b4b5	0.0049653896
144	0xbcbd2862	-0.023090545
145	0x3d88b191	0.06674493
146	0xbd58f1c5	-0.052964944
147	0xbca92ed2	-0.020652208
148	0xbd44b514	-0.048024252
149	0x3da497e3	0.080367826
150	0x3b34fee6	0.0027617752
151	0x3bd02c9a	0.006352973
152	0x3bae7734	0.0053242687
153	0xbd09374f	-0.033500012
154	0x3cdaef61	0.026725473
155	0x3b845d4b	0.0040394417
156	0xbd9f8aa1	-0.07790113
157	0x3c8f8e33	0.01752386
158	0x3ca61e2e	0.020278063
159	0xbda78cf0	-0.081811786
160	0x3d1961e2	0.037446864
161	0xbd4cbbd2	-0.049983807
162	0x3dc3db32	0.095632926
163	0xbd33ad04	-0.043866172
164	0x3b28b8c8	0.0025744904
165	0x3d790fa5	0.060805935
166	0x3da16263	0.07880094
167	0x3b88cfeb	0.0041751764
168	0xbd855467	-0.06510239
169	0xbd781079	-0.060562585
170	0x3bc5e651	0.0060394187
171	0xbd60107a	-0.054703213
172	0xbc2a4181	-0.010391594
173	0xba548663	-0.00081071834
174	0x3db8bdec	0.090206
175	0xbd5ed71c	-0.054404363
176	0xbc8cd236	-0.01719008
177	0xbdd616af	-0.10453545
178	0xbd5174cc	-0.051136777
179	0xbcd9ed65	-0.026602456
180	0x3dbc0586	0.09180741
181	0x3ce42a91	0.027852328
182	0xbd5df8a5	-0.054192204
183	0x3b774772	0.0037731794
184	0xbdb00d53	-0.085962914
185	0x3c7814b7	0.015141658
186	0x3dc0752b	0.09397348
187	0xbdd00379	-0.10156912
188	0xbd197495	-0.037464697
189	0x3dc94c17	0.09828966
190	0x3c49c81e	0.012315778
191	0xbc70faa4	-0.014708195
192	0x3d142511	0.03616816
193	0x3dbcffcd	0.092284776
194	0xbd88542d	-0.0665668
195	0xbc9cac28	-0.01912506
196	0xbcf2bac1	-0.029630067
197	0x3cc142e0	0.023591459
198	0x3c086e0f	0.008327021
199	0x3dc59a94	0.09648624
200	0x3d827f25	0.06371907
201	0xbcc51944	-0.0240599
202	0x3d9a033f	0.075201504
203	0x3baa19e1	0.0051910733
204	0x3d92ea48	0.07173592
205	0xbd58c508	-0.05292228
206	0x3cf2a433	0.029619312
207	0xbd96399d	-0.073352076
208	0x3ceb488f	0.028721122
209	0x3da32de0	0.07967734
210	0x3d94f048	0.072723925
211	0x3cd07d1a	0.025450278
212	0x3d932fc6	0.071868464
213	0x3d3b3409	0.04570392
214	0x3d8f3df2	0.06994237
215	0x3d9d86a6	0.07691698
216	0x3c7776b9	0.015103989
217	0x3ca9bf19	0.020721005
218	0xbc40f846	-0.011777943
219	0xbd872a0d	-0.065998174
220	0x3d2d9613	0.04237945
221	0xbd76f62c	-0.06029336
222	0xbd0021ef	-0.03128236
223	0x3d965bd0	0.073417306
224	0xbd962dbd	-0.07332943
225	0x3da4c50f	0.080453984
226	0xbd44c84c	-0.04804258
227	0xbd043e0f	-0.032285746
228	0x3d107a08	0.035272628
229	0x3cf6be15	0.030119935
230	0x3d001e1e	0.031278722
231	0x3ce871b0	0.028374523
232	0x3dad1d9b	0.084529124
233	0x3cba58f0	0.022747487
234	0x3d88aa8e	0.06673156
235	0x3d903776	0.07041828
236	0xbd73e68c	-0.05954604
237	0xbbbc95ed	-0.0057551772
238	0x3d6ff9dc	0.058587894
239	0xbd3db92b	-0.046319168
240	0xbd0d8171	-0.034547273
241	0x3d1836b1	0.037161533
242	0x3db78aa3	0.0896199
243	0x3ca44ee1	0.020057144
244	0x3d163253	0.036669087
245	0x3d819b72	0.06328477
246	0xbd920ffa	-0.071319535
247	0xbd9dff40	-0.07714701
248	0x3c8ba34c	0.01704564
249	0x3c165e5f	0.009177773
250	0xbcb147da	-0.021640707
251	0x3cf756ed	0.030192817
252	0xbc5de0c4	-0.013542358
253	0x3cc53a9a	0.024075795
254	0x3da4349a	0.080178455
255	0xbd27dbbf	-0.04098105

fc1.0.bias f4 [128]
0	0xbb258fc7	-0.00252627
1	0x3b650312	0.0034944457
2	0x3cb80af4	0.02246616
3	0x3e20d061	0.1570449
4	0xbdb8e088	-0.09027201
5	0x3e25a2fb	0.16175453
6	0xbd112a26	-0.035440587
7	0xbdc10747	-0.09425216
8	0xbc2e7ba5	-0.010649596
9	0x3c6c13ed	0.014409048
10	0xbce96ee5	-0.028495261
11	0x3de9c6bc	0.11414859
12	0x3e1e17d0	0.15438771
13	0xbd0ddc4b	-0.034633916
14	0xbdb20827	-0.08692961
15	0x3d80e0f3	0.06292906
16	0xbd47ffa1	-0.04882777
17	0x3df61ff0	0.1201781
18	0x3da1928c	0.0788928
19	0xbd54758e	-0.05186992
20	0x3df44b0d	0.11928377
21	0xbdfb0bc2	-0.12258102
22	0xbdbdd3e8	-0.092689335
23	0x3e2b9b58	0.16758478
24	0x3d9ebd54	0.07750955
25	0x3dd5c657	0.10438221
26	0xbdee1b3a	-0.11626287
27	0xbcff60f7	-0.031174166
28	0xbe1a9806	-0.15097055
29	0xbd57a2dc	-0.05264555
30	0x3d87aa11	0.066242345
31	0x3da32651	0.07966293
32	0xbdd279e1	-0.10277153
33	0x3d2547b1	0.040351573
34	0xbc2e1bba	-0.010626728
35	0xbc80b412	-0.015710864
36	0x3e200fb1	0.15630986
37	0x3cb696bb	0.02228867
38	0xbcdafc10	-0.02673152
39	0x3dab7972	0.08372773
40	0xbdbe85b4	-0.093028456
41	0xbdd6f470	-0.104958415
42	0x3ded5a74	0.11589518
43	0x3b301ae9	0.0026871508
44	0x3dc6b14c	0.097017854
45	0xbdfd1abd	-0.123586155
46	0x3dc109c6	0.09425692
47	0x3dbaf12f	0.09128033
48	0xbde90469	-0.11377794
49	0x3d54105c	0.051773414
50	0x3da283c9	0.07935292
51	0xbdf9ab8b	-0.12190922
52	0x3da98560	0.082773924
53	0x3dfa0dbe	0.12209652
54	0xbd74378c	-0.059623286
55	0xbd30088d	-0.042976905
56	0x3c4fa86a	0.01267443
57	0xbe06a13a	-0.1314744
58	0xbd425d17	-0.04745206
59	0x3cd64a9d	0.026158625
60	0xbe14a43d	-0.14515777
61	0x3d265259	0.040605877
62	0xbdcd1d58	-0.100153625
63	0xbc85c803	-0.016330725
64	0x3cf5f17a	0.030022372
65	0xbc680088	-0.014160283
66	0xbd21e788	-0.039527446
67	0xbc91fdb7	-0.017821176
68	0x3ded4965	0.115862645
69	0xbba5c1c8	-0.005058501
70	0x3d72efb0	0.059310615
71	0xbd7eba7a	-0.062189557
72	0x3daaf62f	0.08347737
73	0x3ddc7269	0.107640095
74	0x3c6f6e33	0.014613676
75	0xbcf6ed95	-0.030142585
76	0xbda076c7	-0.07835155
77	0xbda3a19b	-0.07989808
78	0x3e441390	0.19148088
79	0x3c38db48	0.0112827495
80	0x3e0226a7	0.12710057
81	0xbe07c772	-0.13259676
82	0xbd870c3f	-0.06594133
83	0xbd826d94	-0.063685566
84	0xbe0a776d	-0.1352212
85	0x3c8f8a37	0.01752196
86	0x3d52c644	0.051458612
87	0x3e0a0831	0.13479687
88	0x3b1943be	0.0023386325
89	0x3c4809ca	0.012209365
90	0x3cc3cf21	0.023902478
91	0x3d325445	0.043537397
92	0x3e0f3476	0.13984856
93	0x3e37f443	0.17964272
94	0xbdf450a6	-0.11929445
95	0xbd574b25	-0.052561898
96	0xbd0ca45d	-0.034336437
97	0x3d20c704	0.039252296
98	0x3e110050	0.14160275
99	0xbcf5546f	-0.029947488
100	0xbc581911	-0.01318957
101	0xbc40d560	-0.011769623
102	0xbd22a250	-0.039705575
103	0x3da022b4	0.07819119
104	0x3e09da68	0.13462222
105	0xbd40310c	-0.046921775
106	0x3e2dfc59	0.16990794
107	0xbc9277ce	-0.017879393
108	0xbd84f26a	-0.06491549
109	0xbd8cc715	-0.068739094
110	0x3dcc4f1c	0.099760264
111	0xbcfc9a02	-0.030835155
112	0xbda82bf0	-0.082115054
113	0xbe075295	-0.13215096
114	0xbd3f32af	-0.046679195
115	0x3e0c5363	0.13703685
116	0xbdc49b78	-0.09599966
117	0x3cdf6b1a	0.02727275
118	0xbda9bd64	-0.082880765
119	0x3dca0953	0.0986506
120	0x3e1ae26e	0.15125439
121	0x3e291a66	0.16513976
122	0x3e034f6b	0.12823264
123	0xbbb7bf84	-0.0056075472
124	0x3d9b3fe1	0.07580543
125	0xbd159574	-0.036519483
126	0xbd644de0	-0.05573833
127	0x3e250458	0.16114938

fc1.3.weight f4 [3, 128]
0	0xbd80ac68	-0.06282884
1	0xbd99d4b0	-0.0751127
2	0xbcee6a1a	-0.029103328
3	0xbcd874cb	-0.026422879
4	0x3d4d165f	0.050070163
5	0xbd93258a	-0.071848944
6	0xbd1f0659	-0.038824413
7	0x3cb171e8	0.02166076
8	0xbdad46ef	-0.08460795
9	0xbac3e8d3	-0.0014946706
10	0x3d6dc8b9	0.058052752
11	0xbd8df1f8	-0.069309175
12	0xbe18bc1c	-0.14915508
13	0x3ca5c254	0.020234264
14	0x3da1c9f8	0.078998506
15	0x3d5b49a4	0.053537026
16	0x3ca456f8	0.020061001
17	0xbdcfbaea	-0.10143073
18	0x3d351429	0.04420868
19	0x3d9931e6	0.074802205
20	0xbdea011d	-0.114259936
21	0x3d0f0620	0.03491795
22	0x3dc47c19	0.09593982
23	0xbdff174f	-0.12455618
24	0xbd12635b	-0.035739284
25	0x3bef6894	0.007306168
26	0x3b0e248d	0.0021689266
27	0x3d156c31	0.036480132
28	0x3ded9604	0.11600879
29	0x3db74c2a	0.08950074
30	0xbd194bdb	-0.037425857
31	0x3dac7bd6	0.08422057
32	0x3d9e0e26	0.07717542
33	0xbd12520e	-0.035722785
34	0xbcd81ffe	-0.026382443
35	0x3da6230e	0.08112155
36	0xbd51ebc6	-0.05125024
37	0x3d38a326	0.045077465
38	0x3cbd851d	0.023134762
39	0xbddc8251	-0.107670434
40	0xbcbfaab4	-0.023396827
41	0x3d24c378	0.040225476
42	0x3d9503d7	0.07276123
43	0xbd1b3e1f	-0.03790104
44	0xbdaf429d	-0.08557627
45	0x3b9e60a0	0.004833296
46	0xbcfad82e	-0.03062066
47	0xbbf0b37e	-0.007345616
48	0x3d2f492f	0.042794403
49	0xbd66fa3f	-0.056390997
50	0xbd560330	-0.052249134
51	0x3cc49af1	0.023999663
52	0xbdcb2ff7	-0.09921258
53	0xbd45928a	-0.048235454
54	0x3c436ccf	0.011927797
55	0x3dad110d	0.08450518
56	0xbcd99669	-0.026560979
57	0x3d0b05bf	0.033941027
58	0xba05a52d	-0.00050981605
59	0x3dad60f0	0.08465755
60	0x3de04e4b	0.10952433
61	0xbdc51827	-0.09623747
62	0xba94639e	-0.0011321192
63	0x3d029941	0.031884436
64	0x3aafafd8	0.0013403846
65	0x3da2b7ad	0.079451896
66	0xbdc10ea8	-0.094266236
67	0x3dfa58a1	0.12223936
68	0xbe257b28	-0.16160262
69	0x3d91da03	0.071216606
70	0x3d244ef8	0.040114373
71	0x3d8d0942	0.068865314
72	0xbd8c6ae5	-0.06856326
73	0xbc68ce26	-0.014209306
74	0x3d87e10c	0.06634721
75	0x3d64b413	0.055835795
76	0x3d38c067	0.045105364
77	0x3de43873	0.11143579
78	0xbd1b290d	-0.037880946
79	0xbcf3a06f	-0.029739587
80	0x3d220465	0.039554972
81	0x3db02c8e	0.08602248
82	0x3dae8b5f	0.08522677
83	0x3d529620	0.0514127
84	0x3dcced4d	0.10006199
85	0xbd9693df	-0.07352423
86	0x3de15544	0.11002591
87	0xbdf1a79d	-0.11799548
88	0x3d0f2158	0.03494391
89	0xbdba904e	-0.09109555
90	0xbd4ba3bd	-0.0497167
91	0xbdab80dc	-0.08374187
92	0xbdfe8c22	-0.12429072
93	0xbddaa82c	-0.106766075
94	0xbc105436	-0.00880914
95	0x3d661c36	0.056179248
96	0x3d155e3c	0.036466822
97	0x3da5b19e	0.080905184
98	0xbdf48b83	-0.11940672
99	0x3dabd040	0.0838933
100	0xbe027414	-0.12739593
101	0x3d0a778d	0.03380542
102	0x3cc99942	0.024609212
103	0xbcba83d2	-0.022767935
104	0xbddb1d0c	-0.106988996
105	0x3d81eb5f	0.063437216
106	0xbe1adb28	-0.15122664
107	0xbc34235b	-0.0109947575
108	0x3cf91188	0.030403867
109	0x3db066f1	0.086133845
110	0x3d5c4910	0.053780615
111	0xbddf1f5d	-0.10894654
112	0xbce2d212	-0.02768806
113	0x3c8abceb	0.016935786
114	0xbc264384	-0.010147933
115	0xbd84cf7d	-0.06484888
116	0x3c780ac5	0.015139286
117	0xbdc26fbe	-0.094939694
118	0x3ce45888	0.027874246
119	0xbdbe13cb	-0.09281119
120	0xbd8d60d8	-0.06903237
121	0xbd69fdcf	-0.057126816
122	0xbdb191c5	-0.086703815
123	0xbd3f7ec7	-0.046751764
124	0xbbf361a8	-0.007427413
125	0xbcd84881	-0.02640176
126	0x3ac70087	0.0015182652
127	0xbd68ed94	-0.056867197
128	0x3d3d46b4	0.046210006
129	0xbd1f17b4	-0.038840964
130	0xbda872e8	-0.08225042
131	0x3e15c663	0.1462646
132	0x3d1abe8d	0.03777938
133	0x3da697bd	0.081344105
134	0xbd116fff	-0.0355072
135	0xbd8ed319	-0.069738574
136	0xbd427940	-0.047478914
137	0xbc049d7e	-0.00809419
138	0xbd1ba55b	-0.037999492
139	0x3dcdb8e8	0.10045034
140	0x3d7d8c0f	0.06190115
141	0x3ca02239	0.019547569
142	0xbd4118bb	-0.047142725
143	0x3dc85680	0.097821236
144	0xbc07d69e	-0.008290915
145	0x3d49473e	0.049140207
146	0x3ddcee49	0.10787637
147	0x3d4742d4	0.048647717
148	0x3d9f7700	0.07786369
149	0xbda02f64	-0.07821539
150	0xbdc7dee3	-0.09759309
151	0x3e21c30d	0.15797062
152	0x3d326df3	0.043561887
153	0x3df576fb	0.11985584
154	0xbe0a26e8	-0.13491404
155	0x3b7a480a	0.0038189911
156	0xbce1f484	-0.027582414
157	0xbcae9d44	-0.021315224
158	0x3dbe8121	0.09301973
159	0x3da18c1d	0.078880526
160	0xbcf126da	-0.029437471
161	0x3db6f3c7	0.089332156
162	0x3bb58846	0.0055399267
163	0x3d8f0389	0.06983096
164	0x3e2a8aa2	0.16654447
165	0x3da4117c	0.080111474
166	0xbdc2a20e	-0.09503566
167	0x3c5d216d	0.013496739
168	0xbe0386c7	-0.12844382
169	0xbe066491	-0.131243
170	0x3dfc98f1	0.12333859
171	0xbdd6d420	-0.104896784
172	0x3d9e4bc8	0.07729298
173	0xbdbd6349	-0.09247453
174	0x3cb93f72	0.02261326
175	0x3e24f317	0.16108356
176	0xbe0991a8	-0.1343447
177	0x3b8b302b	0.0042476854
178	0x3dc92f3c	0.09823462
179	0xbe166e54	-0.14690524
180	0xbd960cd6	-0.07326667
181	0x3e102455	0.1407636
182	0xbde4fe70	-0.111813426
183	0xbde83c0c	-0.11339578
184	0x3d4ecc88	0.050488025
185	0xbda7d014	-0.08193985
186	0xbd3caf31	-0.046065513
187	0x3ad34aa1	0.0016120264
188	0x3b6e4a47	0.003636019
189	0x3d083347	0.033252027
190	0xbd86280b	-0.06550606
191	0xbd9809b2	-0.07423724
192	0xbd77ab9d	-0.060466398
193	0xbc0e40ad	-0.008682412
194	0xbcea5f44	-0.02860988
195	0xbd7cb2db	-0.061694007
196	0x3e22d35c	0.1590094
197	0xbdc4f129	-0.0961631
198	0x3dd5cf93	0.10439982
199	0xbd851a85	-0.06499199
200	0x3db8093e	0.08986138
201	0x3dccb70f	0.09995853
202	0x3d392529	0.045201454
203	0xbd463bbb	-0.048396807
204	0xbd1e089f	-0.03858244
205	0xbdb8aabd	-0.09016941
206	0x3dd36f9d	0.10324023
207	0xbc2be3bc	-0.010491308
208	0x3e2fef0f	0.17181037
209	0xbdc288b4	-0.0949873
210	0xbe06ec36	-0.13176045
211	0x3cbd9c16	0.023145717
212	0xbe09c46c	-0.13453835
213	0x3d4a56dd	0.049399246
214	0x3c07d446	0.008290356
215	0x3e0c0894	0.13675147
216	0x3dac4396	0.084113285
217	0x3dbe7321	0.09299303
218	0x3b9c22c8	0.0047648884
219	0x3b77c21a	0.0037804903
220	0x3e3623f5	0.17787154
221	0x3d9f6cd0	0.07784426
222	0xbdcd59fa	-0.10026927
223	0xbdcfb9a6	-0.101428315
224	0xbdf067e3	-0.11738565
225	0x3c2a0332	0.010376738
226	0x3e07791a	0.1322979
227	0xbc8172f8	-0.015801892
228	0x3d2f14b5	0.042744357
229	0xbd63d180	-0.055619717
230	0xbd4eee9b	-0.05052052
231	0x3df165ca	0.11786993
232	0x3e0d2eaa	0.13787332
233	0xbd32eccf	-0.04368287
234	0x3e2d9845	0.16952617
235	0xbd688f19	-0.056777094
236	0xbe15e7c9	-0.146392
237	0xbd6a4835	-0.05719777
238	0x3df995ac	0.12186751
239	0xbda714f4	-0.08158293
240	0xbdff943d	-0.12479446
241	0xbe18d093	-0.14923315
242	0xbd458ea4	-0.048231736
243	0x3dd961c8	0.106143534
244	0xbdb68fda	-0.08914156
245	0xbddc032e	-0.10742794
246	0xbdb2aecf	-0.08724748
247	0x3dd37c88	0.10326487
248	0x3e040142	0.12891105
249	0x3d30bd15	0.043149073
250	0x3e258d28	0.16167128
251	0xbcebcd78	-0.028784499
252	0x3da7bc46	0.08190207
253	0xbdee9571	-0.116495974
254	0xbe1978bc	-0.14987463
255	0x3e00ec0e	0.12590048

fc1.3.bias f4 [3]
0	0xbc38afe0	-0.011272401
1	0x3c7f07c5	0.015565817
2	0xbd20f2bf	-0.039294

exp_avg f4 [64, 60, 3]
0	0x394c9744	0.00019511307
1	0x3a22bd7a	0.0006208044
2	0x3b09146b	0.002091671
3	0x39ff70b6	0.00048721366
4	0x3a98553e	0.0011622084
5	0x3a825673	0.0009943977
6	0x398e6a63	0.00027163615
7	0x3a3a25f1	0.00071009906
8	0xb91d2f12	-0.00014990222
9	0xb8edbd79	-0.00011336333
10	0x371387bc	8.793486e-06
11	0xba23f097	-0.0006253807
12	0x3790e91f	1.7274693e-05
13	0xb8b822e3	-8.780302e-05
14	0xba03b2af	-0.00050238793
15	0x38a521da	7.8741185e-05
16	0xb8fc8a53	-0.00012042061
17	0xb887b146	-6.4703214e-05
18	0x37f43d7f	2.9115703e-05
19	0xb95dff90	-0.00021171407
20	0xb8a74a05	-7.976968e-05
21	0x36b4b693	5.3856725e-06
22	0xb9edbde1	-0.00045345633
23	0xba621ced	-0.0008625526
24	0x38816d69	6.1715786e-05
25	0xba09fe16	-0.0005263997
26	0xbab057e2	-0.0013453925
27	0x39b90ab9	0.0003529394
28	0xb9d7f6e9	-0.00041191958
29	0xbac95d6a	-0.0015362923
30	0x39cc5d61	0.00038979485
31	0xba31f0c5	-0.00067878916
32	0xbb00ab74	-0.0019633444
33	0x387d3d0b	6.037675e-05
34	0xba833551	-0.0010010396
35	0xbafffd32	-0.0019530414
36	0xb72aa2db	-1.0170707e-05
37	0xba897b54	-0.0010489025
38	0xbb02f1c8	-0.0019980539
39	0x37360ab2	1.0850536e-05
40	0xba8f4ad0	-0.001093233
41	0xbafd1f4e	-0.0019311698
42	0xb8ef8275	-0.000114207076
43	0xbac62401	-0.0015116931
44	0xbb04c227	-0.0020257325
45	0xba2c20ac	-0.0006566148
46	0xbb238c36	-0.0024955398
47	0xbae860a2	-0.0017728994
48	0xba64c755	-0.00087272126
49	0xbb2a143f	-0.002595201
50	0xba4f2ce6	-0.0007903114
51	0xba5968dd	-0.0008293519
52	0xbb141fb0	-0.0022601895
53	0xb888b602	-6.518887e-05
54	0xb9be3c84	-0.00036284712
55	0xbaa9c3ab	-0.001295199
56	0x3a560721	0.00081645144
57	0xb8034e14	-3.130555e-05
58	0xb9eafb98	-0.0004481941
59	0x3a9bbaf8	0.0011881283
60	0x39a55bfe	0.00031539792
61	0x39654370	0.00021864264
62	0x3ab04024	0.001344685
63	0x39ef524a	0.00045646942
64	0x3a28891a	0.0006429121
65	0x3ab38f6e	0.0013699362
66	0x39015e3c	0.00012337504
67	0x39574623	0.00020530126
68	0x3aeec13c	0.0018215547
69	0xb9734a40	-0.00023201946
70	0xba08267c	-0.0005193723
71	0x3b110a52	0.0022131396
72	0xba023b90	-0.0004967982
73	0xba95ec00	-0.0011438131
74	0x3ae9c629	0.0017835546
75	0xb9f97ffc	-0.00047588337
76	0xbaa67e52	-0.0012702441
77	0x3b018a1c	0.0019766157
78	0xb9b7b953	-0.00035042557
79	0xba8b735e	-0.001063924
80	0x3af98484	0.0019036685
81	0x38c2c788	9.2878065e-05
82	0xb8893ef6	-6.5443965e-05
83	0x3ada673b	0.0016662845
84	0x39a0e581	0.00030688572
85	0x39f0cda0	0.0004592957
86	0x3a8c4747	0.0010702395
87	0x39887514	0.0002602717
88	0x39432180	0.00018609129
89	0xb9f8fb0f	-0.000474893
90	0xb8aff28f	-8.38983e-05
91	0xb9fe0505	-0.00048450395
92	0xbaa85fc4	-0.0012845923
93	0xb9326019	-0.00017011202
94	0xba31c6e4	-0.0006781651
95	0xbaa19f56	-0.0012330811
96	0xb922740c	-0.00015492755
97	0xb9d2ee46	-0.0004023185
98	0xba89b414	-0.0010505938
99	0xb926a84d	-0.0001589369
100	0xb9b8fa52	-0.00035281718
101	0xba954c02	-0.001139045
102	0x383fe983	4.5755423e-05
103	0xb924990e	-0.00015697276
104	0xba8adef1	-0.0010595006
105	0x392ece14	0.00016670703
106	0xb9c71764	-0.00037973665
107	0xbaccc552	-0.0015622771
108	0x3907a511	0.00012936095
109	0xba66f58f	-0.0008810395
110	0xbb194592	-0.0023387414
111	0x3963a3e9	0.00021709468
112	0xba6f9986	-0.0009140003
113	0xbb2065ba	-0.0024474696
114	0x39fadfd1	0.00047850472
115	0xba6ed3a0	-0.0009110514
116	0xbb27ea8e	-0.0025621983
117	0x398a4aa7	0.00026377031
118	0xba65fe62	-0.0008773563
119	0xbb0b52cf	-0.0021259075
120	0xb6fc9ebe	-7.5286653e-06
121	0xba4f6b86	-0.00079124456
122	0xbad5638d	-0.0016280279
123	0xb9f073ad	-0.00045862552
124	0xba8cc051	-0.0010738467
125	0xba6d141b	-0.00090438285
126	0xba72bfcb	-0.0009260147
127	0xbab4eed5	-0.0013804088
128	0x39928a16	0.00027950172
129	0xba5e9133	-0.00084902643
130	0xba891869	-0.0010459545
131	0x3aa04623	0.0012227934
132	0xb9cfda87	-0.00039644932
133	0xba002f52	-0.0004889864
134	0x3ae6643e	0.0017577482
135	0xb9bc4211	-0.00035907378
136	0xba5fa92c	-0.00085319835
137	0x3af5afa1	0.0018744358
138	0xb8a4eecb	-7.864608e-05
139	0xb9a92bf3	-0.00032266937
140	0x3b0e40d8	0.002170613
141	0x3980e6f6	0.00024586142
142	0x3a210be3	0.0006143434
143	0x3b0bdbef	0.0021340807
144	0x39eee422	0.0004556487
145	0x3aa2ec50	0.0012430046
146	0x3ae3f814	0.0017392659
147	0xb92d8db9	-0.00016551361
148	0x390363e8	0.00012530352
149	0x3a8f4890	0.001093166
150	0xba1ab088	-0.0005900939
151	0xba6f4c6f	-0.0009128516
152	0x3a6e4747	0.00090896006
153	0xba5e63b3	-0.0008483484
154	0xbab5b694	-0.0013863617
155	0x3ab8a4f6	0.0014087248
156	0xba84a04b	-0.0010118572
157	0xbaabad1f	-0.0013097859
158	0x3b10a679	0.0022071882
159	0xb97c61ab	-0.00024068977
160	0x382e052a	4.1489642e-05
161	0x3b2c375c	0.0026278114
162	0x3990de79	0.00027631575
163	0x3a17b4f8	0.00057871593
164	0x3ad78565	0.0016442953
165	0x39a7f9d0	0.00032038847
166	0x3a02e3e2	0.00049930636
167	0xb87c2f8e	-6.012577e-05
168	0xb813d7e7	-3.5248606e-05
169	0xb9eebbcb	-0.00045534814
170	0xba9ea1af	-0.0012102629
171	0xb97f6ba1	-0.0002435879
172	0xba83f9c1	-0.0010068939
173	0xbaac308d	-0.0013137028
174	0x3900d994	0.00012288085
175	0xba0b8dbf	-0.0005323551
176	0xba478708	-0.0007611369
177	0x3a15b732	0.0005711197
178	0x391c1a17	0.00014887039
179	0xb9acbbe5	-0.0003294639
180	0x39f2562d	0.00046222043
181	0x3759d185	1.29829905e-05
182	0x3abf8ca2	0.0014614055
183	0x3a049e1d	0.0005058961
184	0x39a2fd78	0.00031087897
185	0x3a044c38	0.0005046758
186	0x3a581c82	0.0008243994
187	0x39a7a2af	0.0003197393
188	0xba2c5a52	-0.0006574738
189	0x3a54607d	0.0008101536
190	0xb8ee532d	-0.00011364217
191	0xba5c5dce	-0.0008406312
192	0x392b7560	0.00016351556
193	0xb8ef81bc	-0.00011420573
194	0xb9d835f4	-0.0004123893
195	0xb8238f5c	-3.8995742e-05
196	0x3833f593	4.2905634e-05
197	0xb9e37211	-0.000433818
198	0x38172838	3.6038662e-05
199	0xb93a1853	-0.00017747404
200	0xba172222	-0.0005765279
201	0x39cd1fdf	0.00039124393
202	0xb7a5cec5	-1.9765817e-05
203	0xba6fcfc6	-0.0009148087
204	0x3a591d90	0.0008282298
205	0x383ce869	4.503914e-05
206	0xba978f29	-0.0011563051
207	0x3a71c05b	0.00092220836
208	0x38857f37	6.36563e-05
209	0xba7c3696	-0.0009621171
210	0x3a5cd515	0.00084240857
211	0xb91ddde7	-0.00015055352
212	0xba63b584	-0.0008686411
213	0x3a5fb24a	0.0008533342
214	0xba0bc882	-0.0005332307
215	0xba989bdf	-0.0011643133
216	0x39a724f9	0.0003188027
217	0xba0363a0	-0.00050120987
218	0xbab63ee1	-0.0013904237
219	0x393587d1	0.000173121
220	0xb96f9e82	-0.00022851865
221	0xbad18d6c	-0.0015987582
222	0x39032ba5	0.00012509392
223	0xb8953825	-7.1153314e-05
224	0xbac0d1b8	-0.0014710939
225	0x39c241a4	0.0003705147
226	0xb9e17f87	-0.0004301036
227	0xb9d43105	-0.00040472313
228	0x39ee257e	0.0004542283
229	0xba1595a1	-0.00057061954
230	0x3a2e1fbc	0.0006642302
231	0x39faa7b9	0.0004780868
232	0xba2730be	-0.00063778076
233	0x3a3f85f9	0.0007306035
234	0x39b55de1	0.00034592955
235	0xba3817cb	-0.00070225884
236	0x3a65b107	0.0008762036
237	0x37501405	1.2402427e-05
238	0xba28135c	-0.0006411576
239	0x3a477757	0.00076090306
240	0xb9a4b37c	-0.00031414244
241	0xb9c428c2	-0.000374144
242	0x387580b0	5.85324e-05
243	0xba2b0894	-0.00065244106
244	0xb99e8d2f	-0.00030241298
245	0x397f63a1	0.0002435581
246	0xba2e9a90	-0.0006660605
247	0xba2be687	-0.00065574836
248	0x3a404f8b	0.00073360716
249	0xba15ad01	-0.00057096785
250	0xba4f6da1	-0.00079127593
251	0x3a903de6	0.0011004775
252	0xb9b4d668	-0.0003449202
253	0xba601202	-0.0008547605
254	0x3aa6eca8	0.0012735324
255	0x38ec536b	0.00011268895

exp_avg_sq f4 [64, 60, 3]
0	0x337d2983	5.8943908e-08
1	0x3485b5ac	2.4905364e-07
2	0x3574f65b	9.125558e-07
3	0x34308318	1.6438969e-07
4	0x351a9d49	5.759835e-07
5	0x34d9cc4b	4.0568042e-07
6	0x344fffd4	1.9371447e-07
7	0x3509044b	5.1042724e-07
8	0x34948024	2.7660383e-07
9	0x34317be1	1.6529476e-07
10	0x34b77693	3.417268e-07
11	0x34e77e00	4.311878e-07
12	0x34295b10	1.577248e-07
13	0x349f5e37	2.9684608e-07
14	0x34fd747c	4.7209676e-07
15	0x343acaea	1.739642e-07
16	0x348d6533	2.633693e-07
17	0x351c7598	5.828565e-07
18	0x3421b9b8	1.5061858e-07
19	0x3466604a	2.1455449e-07
20	0x351c3a79	5.819962e-07
21	0x33d29585	9.8060845e-08
22	0x347385d6	2.2679828e-07
23	0x352125a4	6.003195e-07
24	0x33a7ebf3	7.8194624e-08
25	0x34a701e3	3.1107547e-07
26	0x3565e7b7	8.564634e-07
27	0x33965425	7.000225e-08
28	0x34dc2a6e	4.1009065e-07
29	0x35a1dd1f	1.205979e-06
30	0x33abd4de	8.001528e-08
31	0x350f3ee0	5.3363146e-07
32	0x35cd1475	1.5279644e-06
33	0x33d135fd	9.742141e-08
34	0x34ffcc57	4.7646128e-07
35	0x35ad9c8d	1.2935067e-06
36	0x33ef105f	1.1132283e-07
37	0x34d1393b	3.8970924e-07
38	0x3593dfa2	1.1017439e-06
39	0x33c85fb9	9.3306376e-08
40	0x34b11c9e	3.298964e-07
41	0x35a0408d	1.1939716e-06
42	0x33d35573	9.840996e-08
43	0x34ef4417	4.456676e-07
44	0x35a36add	1.2175548e-06
45	0x346f885f	2.2308221e-07
46	0x3591ea58	1.0871545e-06
47	0x358b30f7	1.0370558e-06
48	0x349aaa4c	2.8808643e-07
49	0x358693ce	1.0026795e-06
50	0x352633fa	6.1915455e-07
51	0x34891330	2.55322e-07
52	0x3541a4ab	7.2137726e-07
53	0x351db244	5.874647e-07
54	0x34259df8	1.5424291e-07
55	0x34acc807	3.2183036e-07
56	0x35021f1c	4.8474044e-07
57	0x33b93c0b	8.6256556e-08
58	0x345ae2cf	2.0385345e-07
59	0x352b8868	6.390096e-07
60	0x33e87ada	1.08256884e-07
61	0x34cf24f3	3.858364e-07
62	0x355e6ac5	8.2856815e-07
63	0x343ad3c0	1.7399634e-07
64	0x3528b511	6.2848363e-07
65	0x35903f59	1.0747273e-06
66	0x345b8ef7	2.0447975e-07
67	0x34e1176e	4.1926563e-07
68	0x35a520bb	1.2302984e-06
69	0x348a2ee2	2.5738615e-07
70	0x34bb2daa	3.486469e-07
71	0x35a4fb5a	1.2292105e-06
72	0x348ecddc	2.6599344e-07
73	0x35054095	4.964034e-07
74	0x358dcc60	1.05648e-06
75	0x34824085	2.426133e-07
76	0x3512e431	5.47213e-07
77	0x359d0104	1.1697707e-06
78	0x344336b8	1.8180697e-07
79	0x34b527fa	3.3742964e-07
80	0x359bee98	1.161784e-06
81	0x34080154	1.266647e-07
82	0x34b3b1e6	3.3470786e-07
83	0x3562a20f	8.4427387e-07
84	0x34765147	2.2940104e-07
85	0x354569c7	7.3542145e-07
86	0x352645ee	6.194158e-07
87	0x34657da0	2.1372989e-07
88	0x350fe8b0	5.3610256e-07
89	0x34c4cd6d	3.6657312e-07
90	0x3413d4ef	1.3767907e-07
91	0x34910a9f	2.7016083e-07
92	0x34e4cbc3	4.2616566e-07
93	0x340e0bc5	1.3229062e-07
94	0x34539d95	1.9708234e-07
95	0x34fcab63	4.7063358e-07
96	0x344004c3	1.7883126e-07
97	0x3466dd50	2.1500932e-07
98	0x35281e71	6.2629175e-07
99	0x342f92e8	1.6351589e-07
100	0x3468d863	2.1685405e-07
101	0x350f45cd	5.3373225e-07
102	0x340f0680	1.3320278e-07
103	0x3480ab8a	2.396667e-07
104	0x350d093c	5.254003e-07
105	0x33fe66b3	1.18464776e-07
106	0x348ac2d0	2.5846248e-07
107	0x354c14ce	7.6026197e-07
108	0x33b8e20f	8.6092875e-08
109	0x349fab3a	2.9740642e-07
110	0x35912573	1.0814241e-06
111	0x33539d5a	4.9270376e-08
112	0x34e14902	4.1962636e-07
113	0x35b78936	1.3674496e-06
114	0x33965b84	7.001566e-08
115	0x35231532	6.0753075e-07
116	0x35d9e9f0	1.6235845e-06
117	0x33fa8c21	1.16670215e-07
118	0x3558c7be	8.0756934e-07
119	0x35e30f75	1.6917317e-06
120	0x342455f7	1.5304964e-07
121	0x355fd14d	8.3378546e-07
122	0x35b8166c	1.3715594e-06
123	0x342afa1a	1.592347e-07
124	0x354a05f5	7.525953e-07
125	0x35727855	9.032713e-07
126	0x344241a9	1.8091545e-07
127	0x350ce72c	5.2490464e-07
128	0x34d4d36d	3.964191e-07
129	0x342dee98	1.619868e-07
130	0x348bbade	2.602673e-07
131	0x35019a76	4.8281015e-07
132	0x3422f346	1.5175928e-07
133	0x345c4f78	2.0518007e-07
134	0x351a1022	5.7392947e-07
135	0x345e29aa	2.0690518e-07
136	0x34a5e652	3.0901225e-07
137	0x3518db5c	5.694362e-07
138	0x342ffa84	1.6389282e-07
139	0x347579bd	2.2861691e-07
140	0x35699754	8.7019475e-07
141	0x342e7541	1.624767e-07
142	0x34fcee80	4.711219e-07
143	0x35ac3b6c	1.2832293e-06
144	0x348ae921	2.5874127e-07
145	0x35a12e71	1.2008951e-06
146	0x35c28f4e	1.4495834e-06
147	0x343766cb	1.7080599e-07
148	0x353583e8	6.7619703e-07
149	0x35a597c3	1.2337626e-06
150	0x33dc951c	1.0271671e-07
151	0x34970624	2.813041e-07
152	0x35894add	1.0229084e-06
153	0x344fc301	1.934932e-07
154	0x35059cb4	4.9774394e-07
155	0x359a972d	1.1517892e-06
156	0x34541976	1.9753301e-07
157	0x350d8199	5.271518e-07
158	0x35a949ef	1.2612999e-06
159	0x3361b14b	5.2548142e-08
160	0x3481e332	2.419343e-07
161	0x35b64033	1.3578741e-06
162	0x340af97f	1.2943018e-07
163	0x350c6228	5.22969e-07
164	0x356cd28a	8.8223226e-07
165	0x3471669e	2.2482206e-07
166	0x353b91b0	6.987493e-07
167	0x34bbeef6	3.500533e-07
168	0x34288d94	1.5697725e-07
169	0x34f5d3e2	4.578897e-07
170	0x34f84660	4.6244804e-07
171	0x3418bff0	1.422593e-07
172	0x34fe27c6	4.7340126e-07
173	0x353a96c6	6.9509804e-07
174	0x33fac619	1.1677566e-07
175	0x34adb174	3.2352875e-07
176	0x353004e0	6.5572203e-07
177	0x33d242fb	9.791071e-08
178	0x3474d808	2.2802863e-07
179	0x350ca8c3	5.2399645e-07
180	0x33fe37cd	1.1837947e-07
181	0x34cdb0dd	3.831291e-07
182	0x352ac463	6.3615715e-07
183	0x342ed63e	1.6282954e-07
184	0x3531b674	6.620314e-07
185	0x356e16cf	8.86951e-07
186	0x34563df8	1.9952847e-07
187	0x35451be4	7.3428805e-07
188	0x359b6513	1.1577816e-06
189	0x345e69ad	2.0713806e-07
190	0x35211570	6.000837e-07
191	0x35b1ce86	1.3247634e-06
192	0x341feb96	1.4893735e-07
193	0x3541d404	7.2206626e-07
194	0x35b3b174	1.3388185e-06
195	0x344229bc	1.8082841e-07
196	0x3589ea91	1.0275563e-06
197	0x35a81306	1.2522512e-06
198	0x345cd4f8	2.0566574e-07
199	0x358a02eb	1.028265e-06
200	0x358fca7a	1.0713259e-06
201	0x34249191	1.5326647e-07
202	0x354e03d3	7.6746545e-07
203	0x3585ea1e	9.977409e-07
204	0x343e1de4	1.7706003e-07
205	0x3554f08f	7.9326213e-07
206	0x3563f464	8.4919725e-07
207	0x3423a002	1.5238768e-07
208	0x354871aa	7.467121e-07
209	0x3530bc76	6.5839356e-07
210	0x340913c0	1.2766304e-07
211	0x34e5a136	4.277187e-07
212	0x352b8cfd	6.390763e-07
213	0x3418ff86	1.4249062e-07
214	0x34928646	2.7292316e-07
215	0x352d7f04	6.4632354e-07
216	0x346cbdf4	2.2048317e-07
217	0x34c67277	3.6963658e-07
218	0x354a1485	7.5280724e-07
219	0x3472217c	2.2550188e-07
220	0x34d0da9f	3.8902087e-07
221	0x353f42e4	7.1250383e-07
222	0x34811152	2.4040725e-07
223	0x34b9d4f7	3.4613888e-07
224	0x3531cd06	6.6235987e-07
225	0x343d32d4	1.7620488e-07
226	0x3517f905	5.6614255e-07
227	0x35611a61	8.385742e-07
228	0x342fb8c9	1.636537e-07
229	0x3561c35f	8.4103334e-07
230	0x35bd5f18	1.4109273e-06
231	0x3419e135	1.4331165e-07
232	0x35612380	8.387069e-07
233	0x35e74665	1.7231329e-06
234	0x33ff94c0	1.190142e-07
235	0x35287899	6.276037e-07
236	0x35e4cef2	1.7047553e-06
237	0x3511a24c	5.425288e-07
238	0x34ec3ec2	4.4004088e-07
239	0x35d2e677	1.5713293e-06
240	0x35276970	6.236578e-07
241	0x350c3760	5.2234645e-07
242	0x35b2fdb7	1.3335874e-06
243	0x34c89870	3.7363816e-07
244	0x355b1ae4	8.162299e-07
245	0x35a92708	1.2602841e-06
246	0x34795ea7	2.3224366e-07
247	0x357ec77a	9.491265e-07
248	0x358ad748	1.0344456e-06
249	0x3497ed72	2.8298706e-07
250	0x3542b240	7.253002e-07
251	0x35915778	1.0828799e-06
252	0x346b856c	2.1934619e-07
253	0x354ff9a5	7.747679e-07
254	0x3599b75d	1.1452754e-06
255	0x3418f25b	1.4244272e-07

exp_avg f4 [64]
0	0x3080fe6f	9.38554e-10
1	0x2dd82f0e	2.4577253e-11
2	0xae92f534	-6.682868e-11
3	0xb0921dfc	-1.063142e-09
4	0xb187ddc0	-3.954227e-09
5	0xac792425	-3.5405092e-12
6	0xb2910e4e	-1.6886727e-08
7	0x327e650b	1.480772e-08
8	0xb2876934	-1.576391e-08
9	0xb20a37fc	-8.045387e-09
10	0xb13fb7ce	-2.789864e-09
11	0xb1dc5776	-6.412786e-09
12	0x2ec69bcb	9.031672e-11
13	0xaf9faf08	-2.90463e-10
14	0xb1842afa	-3.8465915e-09
15	0xab3d6d60	-6.7298077e-13
16	0x2e3b3e14	4.2574014e-11
17	0x2f195b03	1.3947603e-10
18	0xae65f9d3	-5.229046e-11
19	0xaf323e3a	-1.6211113e-10
20	0x2d44744b	1.1167132e-11
21	0x2f9edb23	2.8895739e-10
22	0x2e1334a3	3.347068e-11
23	0xacaf90ce	-4.9898757e-12
24	0xad2761cd	-9.514567e-12
25	0xaec066e8	-8.749429e-11
26	0x32952389	1.7362042e-08
27	0xac3b1eb5	-2.6591344e-12
28	0x3237da92	1.0701699e-08
29	0x2e06c4d5	3.0642894e-11
30	0xb28e40d6	-1.656046e-08
31	0x317862de	3.614495e-09
32	0xae382078	-4.1865594e-11
33	0x30ef93b0	1.7431514e-09
34	0xafb33781	-3.2599348e-10
35	0xb1db3f0e	-6.3809074e-09
36	0xaea03ea5	-7.2870855e-11
37	0xaed838d6	-9.832639e-11
38	0xb215ae76	-8.712609e-09
39	0x2e5efbc1	5.070056e-11
40	0xafa2de44	-2.9625558e-10
41	0x328800e4	1.5832889e-08
42	0xaf97b829	-2.7597594e-10
43	0xac724868	-3.4430462e-12
44	0x3096548b	1.0937965e-09
45	0x2f99e959	2.799634e-10
46	0xaf97a98a	-2.7587205e-10
47	0xaf3b1648	-1.7015467e-10
48	0xace79c9d	-6.5828024e-12
49	0x2e5fe17d	5.0904603e-11
50	0x2f0e6255	1.294976e-10
51	0x2f641617	2.0744327e-10
52	0x2f922992	2.6586783e-10
53	0x2f143bd5	1.3481778e-10
54	0x2fa161fe	2.9355357e-10
55	0xb1027760	-1.8985347e-09
56	0x2f7af323	2.2823747e-10
57	0xadb80d94	-2.0924408e-11
58	0x3252bee9	1.2267017e-08
59	0x31300a82	2.5617344e-09
60	0x2f47f867	1.8187195e-10
61	0x2f5fe5b3	2.0363337e-10
62	0xae17a581	-3.4480422e-11
63	0x2d9c30f2	1.7756883e-11
