training/CNN_60.onnx (onnx, 140006 bytes, 6 tensors)

fc1.0.weight f4 [128, 128]
00000000: 742c a93d 787e b03b affa 723d 7ffa 71bd
00000010: cffe 8abd e0fe f63c 6698 32bc f0ae 9a3d
00000020: aece ef3c ce2e 99bd b846 e7bc c9f0 873c
00000030: d287 43bd da87 3f3d 00e5 36bd fb94 a43c
00000040: d52e 643d fa97 bbbd f19b 28bd e9b6 d23d
00000050: 5abf 753d e722 273d 3b0f 54bd 16e9 a4bd
00000060: b37b 273d 50ab fd37 d68a 3b3b b63d 1e3d
00000070: cac5 d1bc e040 8d3c 0891 aa3c 6c11 4cbd
00000080: cc5d 94bd 1dfc d13c bfa0 7f3c fe46 2e3d
00000090: 6d32 d3bc a32e aa3d 0b6b 2abd 5245 863d
000000a0: b031 a23d bbb5 a03d 7ab9 41bd da44 fbbc
000000b0: 0896 06bd 7e47 433d 38e2 ffbc 5cd6 a7bd
000000c0: a89d f63c b069 b63c cddd b33d b339 953b
000000d0: 9c27 9ebc a04f bfbc 6022 8f3c 3fa4 a4bd
000000e0: 243a 14bd 6bf8 8f3c 988c 903d 526b b13d
000000f0: 5026 42bc f050 003d a0ca 6cbd 1d4c 20bd
00000100: fe16 b43d f955 1a3c 635d 6a3d fcef cd3c
00000110: ea59 2c3d ebcf 6a3c 570e 3a3d 0fb6 cfbc
00000120: 96d0 a3bc c7d3 143d cc0f 93bc 2c20 cb3d
00000130: 49a9 83ba 28b8 95bd 7ec1 87bd 9033 173d
00000140: 2948 ce3d b59b 94bc 8ddb 5abb 4f0f c23d
00000150: 4745 30bc 55d8 8dbd aa20 df3c 7265 6d3d
00000160: 46ab 89bd c636 5e3d cef0 703c 2e8a 1fbd
00000170: 6ec4 de3c bf55 bc3d edb0 763c 9b0b 1d3d
00000180: acfa 333d 488d 15bc d006 da3b 8c02 d33d
00000190: 8dbe 06bd 28b6 853d 6245 3e3d fa78 8dbc
000001a0: 1e7f 4dbb 84b1 e53d eda3 8c3c 27c2 b7bc
000001b0: fdbf 5abc 08dd a73d f116 da3c ad3c b2bd
000001c0: f421 6bbd 7b7d aa3d 2b7c 7b3d 62b0 003e
000001d0: 47ce a63b b07d aa3d 87a8 c23d 1876 b3bd
000001e0: 56d4 9bbd f80a 843d a223 90bd be8f 83bb
000001f0: a794 d4bb 7d85 9bbd 9cd1 263a d214 1e3d
00000200: 2f6c 763b 9d32 3b3d 8b32 f3bc 49cf bb3d
00000210: c2be a13d a572 cd3d b9d7 7f3d 466f 72bc
00000220: ecc4 92bd 1fc5 b33d 3aba 45bd 1524 8f3d
00000230: a6f7 003c f556 513c 0475 913d 4950 4bbd
00000240: 10dd 3b3d ce29 afbc fedb 55bd 5d10 b83d
00000250: 8846 7bbc 3e18 29bd 7dca 863d 839a 5f3d
00000260: 0d0c 08bd c73d a73b 41d8 eebb 92fb 193d
00000270: 7e17 1a3c 55e1 c43d 92eb 983d 1b2a 513d
00000280: 7585 c13d 709c cd3b 05f5 3ebd ff25 b0bd
00000290: e939 4ebd 6641 c93b 19fd eabc 06cb 493b
000002a0: e665 ab3d dd53 573d 5692 c9bd fd06 093c
000002b0: e4f1 94bd 3dae 39bd 9c69 79bc 0797 c7bb
000002c0: c4aa 433b 1547 c6bc f721 c43d ef83 a13d
000002d0: b7d8 abbd 42a9 2cbd b758 17bd abe3 b83c
000002e0: b2bb 613d 916e af3d ca93 5d3d 9f63 96bc
000002f0: 90f9 9e3d a994 973d c2f9 adbd 8f34 8d3b
00000300: 02bf f73c 6647 67bd 4864 f2bc 6deb 32bd
00000310: 434a 7bbd 3795 22bd 3939 6dbd 4426 343b
00000320: 653c bb3c 34eb 213d d8bf c73c 998a 9f3d
00000330: 9a4d 15bc edee 75bd f5fd a63d e035 72bd
00000340: 697c 533d 85f2 6bbd 6023 393d 35f7 edbb
00000350: 55d4 0a3d e3ea f4bc e3d6 85bd 2bcb 783d
00000360: cc7c cc3d 90df 95bd 545c 803d 63f3 34bd
00000370: a0e1 1f3d 9417 f53c 8147 df3d 99f8 903d
00000380: b138 04bb fefc c43d 01cb 183d 6211 a5bc
00000390: b4ae f53c b3a6 723c fede 81bd 48ec 8d39
000003a0: 75c0 e43c 22ea 3d3d 7c21 ab3c defd cd3c
000003b0: e0a3 f2bc 7f7e 703d ea58 18bd 2beb 7dbd
000003c0: d9a7 19bd 4239 c7bd 454b a9bc d4cb 76bc
000003d0: ae27 6ebd b09e 28bd e972 fbbc 6f41 c73d
000003e0: 5e8e c03d c784 993d eeee 6e3d 0c2b df3d
000003f0: 9e1c 2dbd ad21 fdbb febe 9ebd b79d 6cbd
0.08260432 0.00538617 0.0593211 -0.059076782 -0.06786882 0.03015083 -0.010900592 0.07552898
0.029273357 -0.074796304 -0.028231964 0.016594307 -0.04773695 0.046760418 -0.044651985 0.02009057
0.055708725 -0.091598466 -0.041164342 0.102887936 0.05999694 0.04080477 -0.051772337 -0.0805227
0.040889453 3.0239724e-05 0.0028616688 0.03863307 -0.025607008 0.017242849 0.02082111 -0.049821302
-0.07244453 0.025632912 0.01560229 0.042548172 -0.02578088 0.083096765 -0.04160599 0.065561906
0.079196334 0.07847162 -0.047296025 -0.03067248 -0.032857925 0.047675602 -0.0312358 -0.08195183
0.030104473 0.022267193 0.087825395 0.0045539974 -0.019305997 -0.023353398 0.017472446 -0.0803914
-0.03618826 0.01757451 0.07058066 0.08663048 -0.011849955 0.031327188 -0.057810426 -0.039135087
0.08793448 0.009419912 0.057217967 0.025138848 0.042077936 0.014331798 0.04542383 -0.025355367
-0.019996922 0.03633478 -0.017951868 0.09918246 -0.0010044958 -0.07310516 -0.066287026 0.03691441
0.10072357 -0.018140653 -0.0033395023 0.09475576 -0.0107587045 -0.06926028 0.027237255 0.057958074
-0.06722121 0.054251455 0.01470585 -0.038950138 0.027193274 0.09196042 0.015056831 0.038341146
0.04394023 -0.009127922 0.006653644 0.1030322 -0.032896567 0.06528884 0.046452887 -0.0172696
-0.0031356285 0.11215499 0.01716801 -0.022431446 -0.013351438 0.08196455 0.026622267 -0.08702979
-0.057405427 0.08324715 0.061397713 0.12567285 0.005090508 0.08324754 0.095048 -0.08762759
-0.07608859 0.064474046 -0.070380464 -0.004014938 -0.0064874473 -0.0759382 0.00063636317 0.038594075
0.0037601104 0.045702565 -0.029687187 0.09170396 0.07897712 0.10031632 0.06246159 -0.0147970375
-0.07166466 0.08777832 -0.048273303 0.06989304 0.007871544 0.01277708 0.07102397 -0.049637113
0.04586512 -0.021382239 -0.052211754 0.08987496 -0.01533664 -0.041282885 0.0658159 0.054590713
-0.033214618 0.0051038 -0.007288963 0.03759343 0.009405015 0.09613291 0.074668065 0.051065546
0.09449283 0.0062747523 -0.046620388 -0.08600997 -0.050348196 0.0061418293 -0.02868514 0.0030791177
0.08369045 0.052570213 -0.098423645 0.008363483 -0.072726995 -0.045332182 -0.015222933 -0.006091002
0.0029856423 -0.024203816 0.09576791 0.078864925 -0.083909445 -0.042153604 -0.03694984 0.022569498
0.05511064 0.08566011 0.05409602 -0.01835805 0.07762444 0.074014015 -0.08494903 0.004309244
0.030242447 -0.056464575 -0.029588833 -0.04368155 -0.06135012 -0.039693084 -0.0579159 0.0027488628
0.022855947 0.039530948 0.02438347 0.07790107 -0.00911274 -0.06004231 0.08153907 -0.05913341
0.05163232 -0.05760433 0.04519975 -0.0072621354 0.0338939 -0.029897159 -0.06535127 0.06074063
0.099847406 -0.07318032 0.0626761 -0.044177424 0.039033532 0.02991847 0.1090231 0.07078666
-0.0020175392 0.09618567 0.037302975 -0.02014989 0.029990532 0.014810252 -0.063413605 0.0002706966
0.027923802 0.046365865 0.02088999 0.025145467 -0.029619157 0.058714386 -0.03719417 -0.06199185
-0.037513588 -0.09727718 -0.020665774 -0.015063245 -0.05814331 -0.04116696 -0.030694442 0.09729277
0.094021544 0.074960284 0.05833333 0.108968824 -0.04226362 -0.0077249617 -0.077512726 -0.057767596

fc1.0.bias f4 [128]
00000000: efab 8fbd c9d8 203d 5676 0fbd 3952 0e3e
00000010: 81bf 893c c78a 303d 1373 53bd 87ce 35bd
00000020: b84d 14bd 3642 21bd 9246 70bd 7e7f 0f3c
00000030: 84db df3d 372f 1b3d eb5c 94bd b082 963d
00000040: d3df 663c 783b 14bd fb7c 01be 24e5 883c
00000050: cbd5 9cbd 37f9 e53d 7b23 e9bd 35be 36bc
00000060: 3e34 0a3e 0af6 7cbd 28c0 c63d 5e47 a33c
00000070: 273c bb3c f199 84bd a316 c73d aa19 29bd
00000080: 8369 f0bd f519 003e 6183 a83d b0dc c33d
00000090: 314e 693d a698 c03c 59d1 1f3e c6a0 1dbd
000000a0: 1487 babd c9d6 083e 1b40 ed3d 264f 8b3d
000000b0: 6d4a 843d e070 bebd 8eb7 dcbb 2f5d 87bd
000000c0: c2f1 11bd 9ac8 c9bd e914 e93c 7175 6fbd
000000d0: 2190 01be 4dfb de3b 7b55 93bc 5f7c 0d3e
000000e0: 5389 153e abd3 22bd 75d7 133e 91e5 a2bd
000000f0: 60c3 32bd 2673 b43d 47bb b7bd 8d92 8a3d
00000100: 6cfd aa3d 9fcf 603d 176b a03d 308a e73d
00000110: 4d89 a03c d916 d13b 44c9 a1bd 01b3 a93c
00000120: 01cd 153e f08e 37bb 4051 7d3d 2fc2 d9bc
00000130: da04 c6bc 01ea ae3d 5732 173a 0b58 8ebd
00000140: ce88 123e 2dbc 1dbd 1417 1dbd 6fd2 38bd
00000150: a5e7 93bd 73b1 d53b 0686 acbc 494e 6bbd
00000160: 4a4c b4bc 4ff4 de3c a687 1f3d d21a 52bd
00000170: 64af f1bd d92d 85bd ae4f 193e cc18 b4bc
00000180: cf41 0d3c ab50 373d defb 06be ba47 93bc
00000190: f8e1 293d 5820 8abd a41e 623d 07d0 9e3d
000001a0: 8a3f 563b 92a9 293d 8579 92bc ea3b 87bc
000001b0: 9c6d 95bd c03f a3bc 59b3 8c3c 068b 46bd
000001c0: 2409 8e3d 91c3 0cbd 20f7 36bc 87b9 d5bb
000001d0: 6e69 aabd cc89 f03b 3790 a6bd 6273 ee3d
000001e0: f389 943d 9462 52bc c27f 263d e4ae 40bd
000001f0: c3d8 afbd 5063 db3d 5c23 c6bd f61d fd3d
-0.070152156 0.039269242 -0.035024963 0.13898553 0.016814949 0.0431011 -0.051623415 -0.044386413
-0.03620693 -0.039369784 -0.05866105 0.008758424 0.10930541 0.037886824 -0.07244285 0.073491454
0.01409145 -0.036189526 -0.12645333 0.016710825 -0.07657965 0.112291746 -0.113837205 -0.011153747
0.13496491 -0.06175808 0.0970462 0.019931491 0.022855831 -0.064746745 0.097211145 -0.04128424
-0.11738875 0.12509902 0.082281835 0.09563577 0.056959335 0.023510288 0.15607204 -0.038483404
-0.09107795 0.13363184 0.11584493 0.06802206 0.06459508 -0.09298873 -0.0067357486 -0.0660957
-0.03563095 -0.09852715 0.028452354 -0.05846161 -0.12652637 0.0068048597 -0.017985096 0.13816975
0.14603166 -0.039752644 0.14437659 -0.079539426 -0.043643355 0.08811025 -0.08971267 0.067662336
0.08349118 0.054885503 0.07832926 0.11305654 0.01959672 0.0063808975 -0.078997165 0.020715239
0.14628984 -0.0028008781 0.061845064 -0.026581852 -0.024172235 0.085407265 0.0005767694 -0.069503866
0.1431 -0.038509537 -0.038352087 -0.04512256 -0.07221917 0.0065213977 -0.021060001 -0.057447705
-0.022009034 0.027216105 0.038947724 -0.05129511 -0.11801031 -0.06502885 0.14971802 -0.02198448
0.008621647 0.044754665 -0.13182017 -0.017978538 0.041475266 -0.0674445 0.055205002 0.07754522
0.003269168 0.04142148 -0.01788021 -0.016508061 -0.07296297 -0.01992786 0.017175363 -0.048472427
0.06935337 -0.034366194 -0.011167318 -0.0065223607 -0.0832089 0.0073406454 -0.081329755 0.11643101
0.07252874 -0.012840886 0.040649183 -0.04704179 -0.08586266 0.10712302 -0.09674713 0.1235923

fc1.3.weight f4 [3, 128]
00000000: 0d5a 93bc 3f9c b63c c768 f7bc 3a8e 813c
00000010: 7bb9 8f3b 1f60 d23d 37d7 ca3d 7d48 81bd
00000020: dbb2 873d 0e2e b03d 203d 393d bce5 af3d
00000030: fafb a0bd 572e 1b3d 3caa d63d ba4d 95bd
00000040: 39d7 f0bd bfd0 3b3d 4c09 b13d 7648 633c
00000050: 740c bc3d adb3 c7bd 1ce9 143d dd33 a9bd
00000060: 20cc 033d 9ff3 12be c4f8 0fbd 7f6b 283d
00000070: bec4 0abd bb4c f03c 939d 993d e7e6 643c
00000080: 349e b13d f3cc cc3b 3f2f bdbd 5cc1 e8bd
00000090: 96a4 dabd 7db4 823a 1a27 a1bd bb39 ae3d
000000a0: 258d c03d 0d9b 99bd 547e 033b b367 e9bc
000000b0: 8a0e bb3d 70ad f83c 7890 5f3d dd6c 7fbd
000000c0: 85aa 85bd 6abe c53d 8c99 21bc 6b9f f8bc
000000d0: 5a16 b93d dd23 74bd 7cef ce3d e79a 1fbd
000000e0: c5c6 8ebd e109 b33c ed24 06be f11c e8bd
000000f0: fe6e 66bd f58d d2bd ee51 fbbc e1c0 883c
00000100: 0f97 063d 34e9 a2bd 2ba9 ffbd a5de 50bd
00000110: 63af 01be 622c 3a3d 5161 943d b573 af3d
00000120: 3b8f a9bd 54d4 7bbd 470a 633d 0994 b73d
00000130: 305b 933d 8108 90bd d720 ab3d 8738 033d
00000140: 2fe1 48bd 9e42 64bd e313 cc3c f62d d23c
00000150: 0ea0 6c3d a37e 1a3d 4c62 9f3d 9e64 69bd
00000160: 3f17 643c 9672 debd 0398 e63d d9dc 033d
00000170: 02c2 e43c df32 d53c 0ed1 9ebd fd61 4ebd
00000180: 8490 fb3c 0f79 d43d b7a1 d53c 9d36 2e3d
00000190: 471a babb 65e5 25bd 6984 8fbd d22d 86bd
000001a0: c3a9 0abe 98a9 0abe 8787 833d 5630 b7bd
000001b0: 6b90 873d 81ec 593d 4d6b 813c 9315 9f3d
000001c0: 3bf5 debd 18ae f5bd bab4 b43d 6671 593d
000001d0: ee61 aa3d f785 99bc c795 153d a7e2 f53c
000001e0: 2426 04be 9846 ebbc 1d8a 723d f08c cabd
000001f0: df98 eabc 0a35 8abd 8cd7 9bbb 7ca3 8f3d
00000200: 7e1d 13be 8f88 8fbc eded 9cbd ff59 013e
00000210: c74c 8abd 2416 1e3d 4ac1 3f3d b0f0 02be
00000220: 6cda 51bd ba47 bbbd ad17 8dbd f311 093c
00000230: 6872 263b 7ebe abbd 945b d13c b0f1 953d
00000240: ccdb 54bd 9f32 69bd 3074 bd3c 4ad1 e8bb
00000250: 096e a6bd 16f3 d13c 9b05 71bd a06f 803d
00000260: cdbf 163e b3dc 91bd 306b e43d 00ac 87b9
00000270: 8d28 9cbd 9925 993c 42dd dc3d d53f dbbd
00000280: a9aa f0bd a93a b43d b196 763d cfe6 ae3d
00000290: 44e2 c93d 2773 e3bb 85d8 043e 3915 bbbd
000002a0: 3833 dabc fe5f ac3d e60c ea3d 8710 023e
000002b0: 1f3a 9f3d 6a21 10be ebc2 8ebd dec2 d7bd
000002c0: 3e0f acbd 3e53 c9bd 85e7 0c3e 6425 89bd
000002d0: cdcf 74bd 65a3 df3c b537 0c3d 5b72 d93c
000002e0: 4427 2c3e 116b 89bd ac64 a53d f27b d0bd
000002f0: 91a4 73bc 7d35 c13d 883f 73bd 15ed 9b3d
00000300: 5ef5 a93d c2f1 fb3c 1f95 e63d bc1f 153e
00000310: f25e 033d 000f 23bd 1a12 0ebe e85a 86bc
00000320: ba08 9e3d a1f2 453d d069 09bd 00f3 fa3c
00000330: fe04 0cbc e292 863d edc7 883d 8023 52bd
00000340: 47ce c63d 3f97 83bd adfc 70bd bf54 36bd
00000350: 0609 11bd 62dd a9bb d4ea 02bd b2b3 88bc
00000360: 70af ea3d 81ef 493c 6072 893d 4676 873c
00000370: 72e5 e6bd 61ba 143b ea9e 1d3e 12bb 5fbb
00000380: a830 553d 48a9 a73c 1b51 c7bd 47d1 8dbc
00000390: 66c4 3b3d 57d9 79bd fb54 9c3d d76c c43d
000003a0: 622d 15bd f008 e03d ade7 463d 47e3 3bbd
000003b0: cc85 0dbd 6b0c b3bc 7a8d a13d 0d12 863c
000003c0: d679 cc3d 9978 a7bd b851 50bd 4a96 41bd
000003d0: d249 a2bd 1744 db3d 3be6 413c 7318 253e
000003e0: f9a3 3d3d baa0 1939 b9cf 543d b931 90bd
000003f0: a089 8bbd f583 5a3d f42a fcbd 35b3 af3d
-0.017987275 0.0222913 -0.030201329 0.01581489 0.0043861247 0.1027224 0.0990433 -0.06312654
0.06625911 0.08602534 0.04522431 0.0858874 -0.07860561 0.03788599 0.104816884 -0.07290216
-0.117598005 0.045853373 0.08644351 0.0138722565 0.09182063 -0.09751067 0.036355123 -0.08261845
0.03217709 -0.14350747 -0.03514935 0.04111814 -0.033879034 0.029333463 0.07500758 0.013971067
0.08672753 0.006250018 -0.09237527 -0.113650054 -0.106759235 0.0009972003 -0.07868786 0.08507105
0.09401921 -0.07500277 0.002006431 -0.02849183 0.091336325 0.030356139 0.054581136 -0.06235968
-0.06526665 0.09655459 -0.009863269 -0.030349454 0.09037466 -0.059604514 0.10104272 -0.038966086
-0.06971506 0.021855297 -0.13100024 -0.11333645 -0.056258194 -0.102809824 -0.030678716 0.016693534
0.032858904 -0.07954636 -0.12483438 -0.05099358 -0.12664561 0.045452483 0.07245124 0.08566991
-0.08279272 -0.06148179 0.055429723 0.08963782 0.07195127 -0.07032872 0.08355873 0.03203633
-0.049042877 -0.055727594 0.024911826 0.025656682 0.057769828 0.037718426 0.077824205 -0.05698072
0.013921558 -0.10861699 0.11259463 0.03219304 0.027924541 0.026025234 -0.07754718 -0.050386418
0.030708559 0.103746526 0.026078088 0.042532552 -0.005679402 -0.04050197 -0.07007677 -0.06551708
-0.13541321 -0.13541257 0.06422334 -0.08944766 0.066193424 0.053204063 0.015798235 0.07767787
-0.10886618 -0.119960964 0.08823533 0.05308666 0.0831946 -0.018740637 0.036519792 0.030015303
-0.12905174 -0.028720185 0.059213746 -0.09890163 -0.028637348 -0.06748398 -0.00475592 0.07013604
-0.14366719 -0.01752117 -0.07662568 0.12631987 -0.06752925 0.038595334 0.046815194 -0.12787127
-0.051233694 -0.0914454 -0.068892814 0.008366096 0.0025397781 -0.08385943 0.025556363 0.07321489
-0.051967427 -0.05693304 0.023126692 -0.0071050273 -0.08126456 0.025628608 -0.058843236 0.06271291
0.14721604 -0.07122173 0.11153257 -0.00025877357 -0.07624922 0.018694686 0.10784389 -0.10705534
-0.11751301 0.08800251 0.060202304 0.08540117 0.0985761 -0.0069412175 0.1297322 -0.09134907
-0.026635751 0.084167466 0.114282414 0.12701617 0.077747576 -0.14075246 -0.069707714 -0.10535215
-0.08401345 -0.0983033 0.13760193 -0.06696585 -0.059768487 0.027299592 0.034232814 0.026543787
0.16811854 -0.067098744 0.08075842 -0.10179891 -0.014870779 0.0943403 -0.05938676 0.07613579
0.08298753 0.030754928 0.11258911 0.14562887 0.03207297 -0.039809227 -0.13874093 -0.01640077
0.07716508 0.048327092 -0.033548176 0.03063345 -0.008546112 0.065709844 0.06678758 -0.051303387
0.09707313 -0.06425332 -0.05883472 -0.044514414 -0.035408996 -0.0051838616 -0.03196223 -0.016687248
0.11459243 0.012325169 0.067112684 0.01653589 -0.11274232 0.0022694098 0.15392652 -0.0034138602
0.052048355 0.020466462 -0.097322665 -0.017311705 0.045841597 -0.060998287 0.07633396 0.09591072
-0.036420234 0.10939205 0.048560787 -0.045871045 -0.034551427 -0.021856507 0.07888313 0.01636603
0.09984176 -0.08177299 -0.050859183 -0.047262467 -0.07924236 0.107063465 0.011834676 0.16122608
0.046298955 0.00014651092 0.051955912 -0.07040734 -0.06813359 0.0533485 -0.1231288 0.08579103

fc1.3.bias f4 [3]
00000000: bd25 9dbd 4f0e 8d3d 4e7a 943d
-0.07673214 0.06887495 0.0724989

onnx::Conv_30 f4 [64, 60, 3]
00000000: 5b67 d7b9 37bf 26bb 6f3c d23a 5870 32ba
00000010: d2d4 06bb 848a 273a 63f1 cdb8 effb f5b9
00000020: a338 fe3a ce54 6b3a 4065 0dbb f58b 283b
00000030: 127d d8ba 60f6 e239 e6d0 f53a 40f1 033b
00000040: 8482 9739 e08d 87ba 60d1 4639 79a4 ccb9
00000050: c5c9 03bb e7b7 3239 2b55 9aba 8c64 a739
00000060: f352 bf3a 8e34 a43a 121f 52b9 3f44 0bbb
00000070: 680d 29bb 8b00 0ebb 3ae9 6c3a 09fd a43a
00000080: 8e31 9e3a 6413 e339 9c87 943a b67b ce3a
00000090: 176c d6ba 5b4e e3ba 5a4b b2ba 612e bdb9
000000a0: ed53 a439 400a d6ba b9b3 3cbb 99bb d639
000000b0: b10b 0abb 1ea3 5538 3e3e f3ba 7809 ec3a
000000c0: 9fbc b83a 7eba 8b3a 59bd 8eba 392d 18bb
000000d0: 1bf7 d43a 46f7 04ba dcba a538 86f1 94ba
000000e0: edca 033b d5de 6c39 6671 573a ad6a 8239
000000f0: eda3 5139 f5b7 713a f829 8cba db33 5739
00000100: 2957 1439 337d 903a ab44 05bb b3c9 c23a
00000110: 3a42 cb3a 5101 8038 8562 8fba ffb9 c0ba
00000120: dd11 8e3a 7321 21ba 2fd1 d0ba e3d8 8339
00000130: 3238 a0ba e553 15ba 24bf 80ba 0220 8839
00000140: 41bd 92ba be8f e2ba 0015 ecba 023a b039
00000150: 2fe9 773a 2e8a 1cbb b198 0139 5c0f 73ba
00000160: 331a ecba 7dbc 00bb 0d8d 06bb a38c 0abb
00000170: 9bba 54b8 32ea cbb9 7f3d 38bb 7436 e2b9
00000180: 816a 85ba d2aa ae3a 5cab a0b8 c7c9 77b9
00000190: cb02 0db8 161e 9d3a 0a20 a33a c7be 4c3a
000001a0: d529 c43a 52dd c4ba 339f df3a 5f54 cd39
000001b0: cba3 f1ba 8f0a 1138 eecc 21ba 8126 65b9
000001c0: 717b 213b 377f 21bb 8a0b 523a df32 c436
000001d0: 57ae dbba 3705 84ba 3738 80ba 6164 a838
000001e0: 3fad 763a b5ee 3db9 6350 15bb f5ea 183a
000001f0: 8415 083b cef2 073b c99f 973a 587d 833a
00000200: bc65 64ba 8e34 1039 9b1d 243b 4b27 843a
00000210: e1a3 e23a 7c40 d3ba bbc8 1f3b 1578 96ba
00000220: cffc 85ba f5f7 9aba 47b3 86ba aa13 a8ba
00000230: 731c a7ba 4a73 92ba 24da 54bb aa62 0fbb
00000240: 38be 07bb b9c3 96ba 6557 17ba ebe5 13ba
00000250: 3188 28ba 0cd6 2eba 9eee a5b9 ee9a 0cbb
00000260: 7daf a83a a44f 6439 3402 aa3a 3f3a aeba
00000270: 3349 a1b9 9281 d33a 34d4 2f38 1fd3 dc3a
00000280: 1442 5ab7 2577 00bb 2522 403a ec06 8139
00000290: b940 7239 a12f 9bba dab3 d6ba 3279 303a
000002a0: 0aca bd39 2284 483a 3277 f1b9 4a07 2b39
000002b0: b864 2539 1cd0 d9b9 ad32 ce39 f295 743a
000002c0: c9f9 2d3a 3581 50b9 dfdb c6ba a9aa c23a
000002d0: 1bd4 b339 3661 48b9 4bf4 073a 4151 2038
000002e0: b03d 0339 7988 aaba 77b6 1b3a 6d65 a43a
000002f0: 2261 e5b9 d46a bdb9 d022 b13a 075e 9939
00000300: 8710 2e3a 995c c53a fba0 5839 5cec 2d3a
00000310: c615 bb3a 3edd 54ba 22c5 c6b9 8af7 023a
00000320: b507 4b39 d21f a8b9 059e 473a fa71 81b7
00000330: 0084 873a 3a08 8d39 41df 913a e626 353a
00000340: e8d0 6eba 0dac 1839 0ea6 0bba e985 ec38
00000350: 3b86 4fba 22b0 693a 7b4b fe39 4be7 3939
00000360: c634 a03a 2151 753a 5278 2c39 803a 083a
00000370: 6981 6239 7959 9bb9 7cae a83a ec37 78ba
00000380: d9ec 133a 83d0 69b9 1396 58ba 104c 8bba
00000390: 6d2f a2b9 bb20 60ba 11ce a9b9 e3be ea39
000003a0: b4fb b4ba cb9d 9a39 9f55 eb39 9663 c1ba
000003b0: 34cd 4f3a 1fb2 573a 75d0 7db8 e4ac 5b3a
000003c0: 8608 8bba a00e fbb7 96b3 0cba d318 9fba
000003d0: 31bb 5aba 45b1 b0b9 7fa7 ab39 7c73 cd39
000003e0: 74ab d6b8 433b 61b9 e8ec 51ba 40e9 24ba
000003f0: a58a 5fba 3fd6 31b8 3bf8 2b3a a664 1bba
-0.00041085 -0.0025443563 0.0016039739 -0.00068069017 -0.0020573628 0.0006391185 -9.8201235e-05 -0.00046917747
0.0019395541 0.00089771755 -0.0021575242 0.0025718187 -0.0016516766 0.00043289643 0.0018754273 0.002013281
0.00028898206 -0.0010341965 0.0001896075 -0.00039032454 -0.0020109278 0.00017043912 -0.001177465 0.00031927635
0.0014596864 0.001252787 -0.00020038735 -0.0021250395 -0.0025795344 -0.0021667804 0.0009037439 0.0012587617
0.0012069212 0.0004331126 0.0011331919 0.0015753421 -0.0016359118 -0.0017342077 -0.0013602779 -0.00036083444
0.00031343047 -0.0016329959 -0.0028793646 0.00040957032 -0.0021064098 5.0935072e-05 -0.0018557978 0.0018008193
0.0014094299 0.0010660437 -0.001089017 -0.0023220314 0.001624796 -0.0005072247 7.9026184e-05 -0.0011363483
0.0020109967 0.00022589725 0.0008218497 0.00024875012 0.0001999286 0.0009220832 -0.001069366 0.00020523315
0.0001414685 0.001102364 -0.0020335119 0.0014861136 0.0015507408 6.103761e-05 -0.0010939395 -0.0014703869
0.0010839064 -0.0006146647 -0.0015931482 0.0002514786 -0.0012223779 -0.00056964 -0.0009822589 0.0002596379
-0.0011195318 -0.001728527 -0.001801163 0.00033612555 0.00094570493 -0.0023886072 0.0001235928 -0.0009272003
-0.0018013179 -0.0019643598 -0.002053085 -0.0021140955 -5.071853e-05 -0.00038893666 -0.0028112826 -0.0004314665
-0.0010178835 0.0013326055 -7.661313e-05 -0.00023630924 -3.361962e-05 0.0011987116 0.0012445461 0.00078104105
0.001496608 -0.0015019572 0.0017060995 0.00039163508 -0.0018435655 3.4580527e-05 -0.00061721995 -0.00021853486
0.0024640227 -0.0024642476 0.0008012584 5.8471774e-06 -0.0016760331 -0.0010072355 -0.0009782378 8.029561e-05
0.0009409971 -0.0001811337 -0.002278351 0.0005833351 0.0020764777 0.0020744088 0.0011568005 0.0010031862
-0.00087126694 0.00013752488 0.002504206 0.0010082511 0.0017291271 -0.001611724 0.002438112 -0.0011479879
-0.0010222438 -0.0011823165 -0.0010276817 -0.0012823243 -0.0012749567 -0.0011173275 -0.0032478655 -0.0021878877
-0.0020712744 -0.0011502422 -0.00057732157 -0.00056418654 -0.00064289855 -0.0006669469 -0.00031649036 -0.002145465
0.0012869682 0.00021773443 0.0012970627 -0.0013292505 -0.0003076285 0.0016136637 4.192088e-05 0.0016847587
-1.3009198e-05 -0.0019602266 0.00073293067 0.00024609955 0.0002310303 -0.0011839756 -0.0016380504 0.00067319267
0.0003619942 0.0007649084 -0.0004605591 0.00016310546 0.00015773147 -0.0004154452 0.00039329138 0.0009330205
0.0006636647 -0.00019884559 -0.0015171728 0.0014851886 0.0003429957 -0.000191097 0.0005186244 3.8222646e-05
0.00012516114 -0.0013010643 0.000593997 0.0012542434 -0.00043750653 -0.00036128482 0.0013514403 0.0002925249
0.0006640036 0.0015057503 0.00020659335 0.00066346466 0.0014273457 -0.0008120126 -0.00037912378 0.00049959926
0.0001936246 -0.00032067165 0.00076147943 -1.5431073e-05 0.0010339022 0.00026899745 0.0011129157 0.00069103984
-0.0009110109 0.00014559944 -0.0005327173 0.000112783 -0.0007916425 0.00089144905 0.00048502893 0.00017729138
0.0012222759 0.00093580974 0.00016448021 0.00051967055 0.00021601249 -0.00029630566 0.0012869383 -0.0009468782
0.0005642898 -0.00022298288 -0.0008262109 -0.0010627527 -0.00030934383 -0.0008549799 -0.00032387723 0.0004477418
-0.0013807924 0.00029490734 0.00044886486 -0.001475441 0.0007927001 0.0008228141 -6.051404e-05 0.000837995
-0.0010607399 -2.9928342e-05 -0.00053673366 -0.0012138135 -0.0008343934 -0.00033701412 0.00032740456 0.0003918669
-0.00010236251 -0.00021479749 -0.0008008019 -0.00062908605 -0.00085274345 -4.239962e-05 0.00065601215 -0.00059277785

onnx::Conv_31 f4 [64]
00000000: e6bf 43be 595c 84bd 3c57 24be 5427 0ebe
00000010: 1afa 1abe e341 9bbd a841 3abe 34c6 4bbe
00000020: f8de 19be 907f 43be 86b9 10be 28f0 95bd
00000030: 5582 7bbd f923 123e 6519 2e3d 7024 ccbd
00000040: 09df 18be e2e2 513e 87b2 87bd 6095 94be
00000050: 2f56 23be 1edf c5bd 4a9b 3ebd 301f 79bd
00000060: a627 11be 2858 acbd 3f0b 853e 9a9d 39be
00000070: 73bd 11be 606d 42be a243 09be 50ff 98bd
00000080: d850 0fbe 5bf4 43be a427 6dbe 8084 cabc
00000090: 45d2 91be 5dc8 32be 1f0a 83bd 7892 1cbe
000000a0: ba60 94be c121 a4bb efdc 8e3e 8476 6bbe
000000b0: ddae 22bd 605f ebbd 9fee 02be f1bb 4ebd
000000c0: 2fea 48bd 0dda e43e 702b 16be 7f13 42be
000000d0: 8a3e b2bd 5e92 b0bd f87e 23bd b8f4 bb3c
000000e0: 8d88 ddbd df99 e0bd f0ca 28be 3df2 6ebd
000000f0: c3cd 40be decf 82be d21f 3ebe 1692 9f3e
-0.19116172 -0.064629264 -0.16048902 -0.1388219 -0.15134469 -0.07580926 -0.18189108 -0.19899827
-0.15026462 -0.1909163 -0.14133272 -0.07321197 -0.06140359 0.14271535 0.042504687 -0.099678874
-0.14928831 0.20496705 -0.06625848 -0.29020214 -0.15950845 -0.09661697 -0.046534814 -0.06082076
-0.14175281 -0.08415252 0.25985143 -0.18126526 -0.14232425 -0.18987036 -0.13404706 -0.07470572
-0.13995683 -0.19136183 -0.23159653 -0.024721384 -0.28480735 -0.17459245 -0.06398415 -0.15290248
-0.28980047 -0.0050089066 0.27902934 -0.22994429 -0.039717544 -0.11492801 -0.12786339 -0.050472204
-0.04905146 0.4469761 -0.14665008 -0.1895275 -0.08703335 -0.08621667 -0.03991601 0.02294384
-0.108170606 -0.109668486 -0.16483665 -0.058336485 -0.18828492 -0.25549215 -0.18566826 0.31166142
