training/checkpoints/fold_1/best-checkpoint.ckpt (torch, 358546 bytes, 26 tensors)

conv1.0.weight f4 [64, 60, 3]
-0.013614595 -0.08431394 0.05315189 -0.022556458 -0.06817613 0.021178871 -0.003254156 -0.015547429
0.064272225 0.029748231 -0.071495235 0.08522397 -0.054732647 0.014345162 0.062147215 0.06671536
0.00957618 -0.03427082 0.006283143 -0.01293443 -0.066637374 0.0056479485 -0.039018396 0.010580061
0.048370548 0.04151439 -0.0066403616 -0.07041877 -0.085479654 -0.07180197 0.029947931 0.04171238
0.039994508 0.014352325 0.03755129 0.052203104 -0.05421024 -0.05746753 -0.045076385 -0.011957197
0.010386343 -0.05411361 -0.09541532 0.013572189 -0.06980143 0.0016878676 -0.06149674 0.05967488
0.046705168 0.03532616 -0.036087442 -0.076946616 0.053841885 -0.016808223 0.0026187403 -0.03765589
0.06663966 0.0074856994 0.02723415 0.008242989 0.00662516 0.03055565 -0.035436254 0.0068009403
0.0046879305 0.03652973 -0.06738576 0.04924628 0.051387873 0.0020226417 -0.03625056 -0.048725136
0.035918087 -0.020368531 -0.052793156 0.008333405 -0.040506706 -0.018876519 -0.03254973 0.008603784
-0.03709863 -0.057279285 -0.05968627 0.011138404 0.03133842 -0.07915278 0.0040955725 -0.03072522
-0.059691403 -0.065094225 -0.06803437 -0.07005611 -0.0016806918 -0.012888439 -0.09315924 -0.014297777
-0.033730246 0.044159386 -0.0025387774 -0.007830728 -0.0011140745 0.039722458 0.041241307 0.02588185
0.04959404 -0.0497713 0.056536093 0.012977858 -0.06109139 0.0011459166 -0.020453205 -0.007241727
0.081651874 -0.081659324 0.026551802 0.00019376159 -0.055539764 -0.033377398 -0.03241648 0.0026608063
0.031182412 -0.0060023414 -0.07549915 0.019330343 0.06880955 0.06874099 0.03833363 0.033243213
-0.02887172 0.0045572487 0.08298345 0.033411052 0.057299174 -0.053408712 0.08079325 -0.0380416
-0.033874735 -0.039179165 -0.034054935 -0.042493187 -0.042249043 -0.037025582 -0.10762656 -0.072501406
-0.068637125 -0.0381163 -0.019131068 -0.018695805 -0.021304134 -0.022101037 -0.01048774 -0.07109562
0.042647075 0.007215203 0.042981584 -0.04404821 -0.010194079 0.053472992 0.0013891587 0.05582891
-0.00043109397 -0.06495726 0.024287585 0.008155155 0.007655796 -0.039234143 -0.054281108 0.022308009
0.011995629 0.02534725 -0.015261836 0.0054049282 0.005226847 -0.013766869 0.013032744 0.030918086
0.021992275 -0.0065892716 -0.05027551 0.04921563 0.021541774 -0.012001807 0.032572094 0.0024005652
0.007860719 -0.081713066 0.037305858 0.07877249 -0.027477505 -0.022690417 0.084876925 0.018371964
0.041702606 0.094568335 0.012975052 0.041668758 0.08964414 -0.050998278 -0.023810789 0.031377226
0.012160552 -0.020139715 0.047824554 -0.0009691453 0.06493401 0.016894327 0.06989644 0.04340061
-0.057215847 0.009144342 -0.0334572 0.007083312 -0.049718942 0.05598727 0.03046214 0.011134747
0.07676478 0.058773335 0.010330145 0.032637797 0.013566619 -0.018609414 0.08082589 -0.059468485
0.035440102 -0.014004393 -0.05189 -0.06674596 -0.019428274 -0.053696834 -0.02034104 0.02812033
-0.08672037 0.018521594 0.028190862 -0.09266476 0.04978536 0.05167667 -0.0038005717 0.052630097
-0.066619545 -0.0018796432 -0.033709444 -0.076233305 -0.0524039 -0.021166101 0.020562574 0.024611117
-0.006428856 -0.013490311 -0.050294194 -0.039509617 -0.05355637 -0.0026628992 0.041200705 -0.03722929
00000000: c00f 5fbc c9ac acbd ccb5 593d 52c8 b8bc
00000010: ed9f 8bbd 507f ad3c ae43 55bb a5ba 7ebc
00000020: 28a1 833d 90b2 f33c 186c 92bd e889 ae3d
00000030: 572f 60bd f807 6b3c 148e 7e3d 10a2 883d
00000040: 69e5 1c3c 8f5f 0cbd d3e2 cd3b eeea 53bc
00000050: 2d79 88bd 6d12 b93b c1d1 1fbd fe57 2d3c
00000060: 3220 463d fe0a 2a3d 6497 d9bb b737 90bd
00000070: f50f afbd e90c 93bd 5d55 f53c 9ada 2a3d
00000080: 48d1 233d 0426 6b3c 62cf 193d ecd2 553d
00000090: 8e0b 5ebd 1363 6bbd 04a2 38bd 1fe8 43bc
000000a0: 7b2b 2a3c 3ca6 5dbd 1b69 c3bd e35d 5e3c
000000b0: 0df4 8ebd 703b dd3a 01e4 7bbd a66d 743d
000000c0: eb4d 3f3d 2ab2 103d 6dd0 13bd 3096 9dbd
000000d0: 4f89 5c3d 66b1 89bc 2c9f 2b3b 103d 1abd
000000e0: 607a 883d 994a f53b 271a df3c 9a0d 073c
000000f0: df17 d93b d84f fa3c 9b25 11bd 6cda de3b
00000100: 369d 993b 33a0 153d 8c01 8abd 78b6 493d
00000110: 177c 523d 4c8e 043b 787b 14bd 0294 47bd
00000120: d81e 133d e8db a6bc a33d 58bd d588 083c
00000130: 5cea 25bd eea2 9abc de52 05bd e3f6 0c3c
00000140: bcf4 17bd af9d 6abd 9779 74bd da7d 363c
00000150: b75c 003d da1a a2bd 2734 863b 75b3 fbbc
00000160: f97e 74bd 1f50 85bd 9b55 8bbd 9479 8fbd
00000170: a94a dcba 082a 53bc 46ca bebd 3941 6abc
00000180: ba28 0abd 79e0 343d 9e61 26bb 744c 00bc
00000190: 2306 92ba 04b4 223d a5ec 283d 2c06 d43c
000001a0: 1f23 4b3d fedc 4bbd 6492 673d 15a1 543c
000001b0: f73a 7abd 9532 963a 7b8d a7bc 024c edbb
000001c0: 1939 a73d 013d a7bd 2a83 d93c 7b2c 4b39
000001d0: aa7d 63bd bdb6 08bd 25c7 04bd ec60 2e3b
000001e0: 4272 ff3c 4aaf c4bb 4c9f 9abd ab5a 9e3c
000001f0: 05ec 8c3d 13c8 8c3d b903 1d3d 092a 083d
00000200: 6384 ecbc f954 953b 3af3 a93d 07da 083d
00000210: 8ab2 6a3d 18c3 5abd ee76 a53d 82d1 1bbd
00000220: 3cc0 0abd 557a 20bd 307d 0bbd 560d 2ebd
00000230: 550d 2dbd 23a8 17bd 506b dcbd 9e7b 94bd
00000240: 9f91 8cbd d61f 1cbd c2b8 9cbc f227 99bc
00000250: 0286 aebc 3c0d b5bc c5d4 2bbc 959a 91bd
00000260: b3ae 2e3d 826d ec3b 750d 303d e56b 34bd
00000270: 1105 27bc 7f06 5b3d 6e14 b63a dbac 643d
00000280: 7404 e2b9 5008 85bd c2f6 c63c 339d 053c
00000290: 79dd fa3b fbb3 20bd de55 5ebd 49bf b63c
000002a0: 5189 443c 09a5 cf3c c80c 7abc d31b b13b
000002b0: f845 ab3b 6f8e 61bc 4a87 553c ed47 fd3c
000002c0: 2529 b43c d1ea d7bb b1ed 4dbd 5496 493d
000002d0: 6078 b03c 3aa3 44bc 516a 053d cd52 1d3b
000002e0: 3fca 003c 2e59 a7bd 07ce 183d 7953 a13d
000002f0: 8118 e1bc 41e1 b9bc f4d3 ad3d cd80 963c
00000300: 5ad0 2a3d 0bad c13d 5095 543c dcac 2a3d
00000310: 5997 b73d 92e3 50bd d80e c3bc 6885 003d
00000320: 0d3d 473c 0bfc a4bc aee3 433d 3d0e 7eba
00000330: 1ffc 843d f965 8a3c dd25 8f3d d7c4 313d
00000340: 2a5b 6abd 26d2 153c 6b0a 09bd 211b e83b
00000350: 17a6 4bbd e852 653d bd8b f93c 846e 363c
00000360: da36 9d3d 4fbc 703d c53f 293c 36af 053d
00000370: 8646 5e3c c572 98bc 0b88 a53d 3a95 73bd
00000380: a429 113d ae72 65bc 9c8a 54bd 1bb2 88bd
00000390: 0b28 9fbc 36f1 5bbd 41a2 a6bc 9b5c e63c
000003a0: 739a b1bd 99ba 973c 86f0 e63c 06c7 bdbd
000003b0: bceb 4b3d eaaa 533d 0313 79bb a892 573d
000003c0: d46f 88bd 5c5e f6ba ea12 0abd 3520 9cbd
000003d0: 79a5 56bd 8864 adbc d872 a83c 419d c93c
000003e0: 27a9 d2bb 7706 5dbc 4901 4ebd d6d4 21bd
000003f0: ed5d 5bbd 0984 2ebb 12c2 283d bd7d 18bd

conv1.0.bias f4 [64]
-0.0001331604 0.012456354 0.0014461055 0.012010639 -0.00038588565 0.007200641 6.81371e-05 -0.003296861
0.0030973516 -0.017173057 -0.0034518254 -0.014171938 -0.0029074082 -2.827263e-06 0.016324664 -4.616544e-05
-5.945105e-06 -0.013051911 1.6105281e-05 3.1709427e-05 -0.00034262153 0.00036274135 0.00041142324 -0.00031045062
0.0003918147 6.666205e-05 0.0045375843 -2.1100157e-05 6.2228166e-05 -0.018650414 0.00042861956 -0.009358274
0.00042410745 0.012966337 -0.0123306615 -0.0047714054 -0.003100787 -0.012305722 -0.000989656 4.7420268e-05
6.429226e-05 -0.0008190655 -0.008707057 -0.0003001264 -0.00336016 0.00030505034 -7.5304175e-05 -0.0055987774
0.004120319 0.0027924345 -0.004637723 -2.4365358e-05 0.010257861 0.0031266517 -0.0009809458 -0.0073765526
-0.0013440764 -0.0067541413 -0.003448918 -0.0013831789 0.0068594236 -2.3706078e-05 -0.0002652958 -6.146739e-05
00000000: f9a0 0bb9 bc15 4c3c 408b bd3a 45c8 443c
00000010: b250 cab9 5bf3 eb3b d4e4 8e38 2610 58bb
00000020: f0fc 4a3b 83ae 8cbc 0538 62bb 6b31 68bc
00000030: 378a 3ebb 02bc 3db6 4dbb 853c c4a1 41b8
00000040: 107c c7b6 afd7 55bc d419 8737 bdff 0438
00000050: e2a1 b3b9 522e be39 4bb4 d739 fac3 a2b9
00000060: 7b6c cd39 eacc 8b38 04b0 943b 3e00 b1b7
00000070: 7e80 8238 c1c8 98bc 58b8 e039 7253 19bc
00000080: bd5a de39 c270 543c 8b06 4abc 7359 9cbb
00000090: 9336 4bbb f09d 49bc 58b7 81ba 20e5 4638
000000a0: a5d4 8638 8eb6 56ba 0ba8 0ebc 495a 9db9
000000b0: 2136 5cbb 2aef 9f39 9fec 9db8 f375 b7bb
000000c0: be03 873b 4701 373b 0af8 97bb 3564 ccb7
000000d0: 9610 283c 83e8 4c3b 1493 80ba 02b7 f1bb
000000e0: b82b b0ba d851 ddbb 3e07 62bb c84b b5ba
000000f0: 04c5 e03b 6adc c6b7 6617 8bb9 0ee8 80b8

conv1.1.weight f4 [64]
1.0131701 1.0174612 1.0241274 1.0292454 1.0323412 1.0430814 0.99603564 1.0228038
1.0218041 1.0326855 1.0219078 1.0104395 1.0114663 1.0062648 0.99610984 1.0471569
1.0284252 1.0162913 1.0322878 1.0167556 1.0283699 1.019317 1.0341747 1.0178071
1.0128711 1.0082998 1.0135157 1.0041051 1.0037013 1.0369437 1.0240496 0.9977908
0.99642867 1.017543 1.025044 0.9962076 1.0447707 1.0381501 1.0000504 1.0180489
1.0233274 1.0407071 1.013978 1.0300868 1.0101922 1.0277094 1.0287203 1.0200654
1.0103801 1.0536438 1.0241475 1.0427555 1.026497 1.0097362 1.0494733 1.0095261
1.0454162 1.0564877 0.98719865 1.0116507 1.0228825 1.0343715 1.0315993 1.0392888
00000000: 8faf 813f 2b3c 823f 9b16 833f 50be 833f
00000010: c223 843f b183 853f 31fc 7e3f 3ceb 823f
00000020: 7aca 823f 0a2f 843f e0cd 823f 1556 813f
00000030: ba77 813f 49cd 803f 0e01 7f3f 3d09 863f
00000040: 70a3 833f d515 823f 0222 843f 0c25 823f
00000050: a0a1 833f fb78 823f d65f 843f 8147 823f
00000060: c3a5 813f f80f 813f e2ba 813f 8486 803f
00000070: 4979 803f 92ba 843f 0f14 833f 386f 7f3f
00000080: f315 7f3f d93e 823f a434 833f 7607 7f3f
00000090: 0cbb 853f 1ae2 843f a701 803f 6d4f 823f
000000a0: 64fc 823f e435 853f 08ca 813f e2d9 833f
000000b0: fa4d 813f fb8b 833f 1bad 833f 8191 823f
000000c0: 2354 813f cddd 863f 4417 833f 0379 853f
000000d0: 4164 833f 093f 813f 2455 863f 2738 813f
000000e0: 33d0 853f fd3a 873f 0db9 7c3f c57d 813f
000000f0: d0ed 823f 4966 843f 720b 843f 6a07 853f

conv1.1.bias f4 [64]
-0.06123229 -0.036918413 -0.051597994 -0.04973156 -0.041637424 -0.010288203 -0.06630715 -0.01962562
-0.0543963 -0.03859178 -0.043604955 -0.00603156 -0.028678484 0.0109724235 0.027140003 -0.05206378
-0.05026585 0.03952854 -0.04170619 -0.06863003 -0.043177027 -0.015484307 -0.016669732 -0.049077693
-0.03343839 -0.039044607 0.076470524 -0.051028207 -0.046471767 -0.04757896 -0.04827289 -0.01167158
-0.031170892 -0.04302585 -0.061040424 -0.03099194 -0.036996793 -0.008219853 -0.024735996 -0.055243652
-0.0690867 -0.0038888692 0.044272896 -0.057996072 -0.026523937 -0.052678164 -0.059600372 -0.05131683
-0.033415593 0.07610176 -0.049324885 -0.044609025 -0.041678775 -0.02663495 -0.029080624 0.03618447
-0.02214116 -0.039435834 -0.050520018 -0.04159886 -0.03660791 -0.0580485 -0.058516733 0.057056967
00000000: b6ce 7abd c337 17bd 6b58 53bd 52b3 4bbd
00000010: 018c 2abd da8f 28bc 0bcc 87bd e9c5 a0bc
00000020: a8ce 5ebd 6a12 1ebd 1c9b 32bd 64a4 c5bb
00000030: 24ef eabc aec5 333c b654 de3c d540 55bd
00000040: 90e3 4dbd aee8 213d 1cd4 2abd e78d 8cbd
00000050: 65da 30bd e4b1 7dbc f68e 88bc b105 49bd
00000060: b1f6 08bd 3ded 1fbd 949c 9c3d f402 51bd
00000070: 2e59 3ebd 28e2 42bd cbb9 45bd 283a 3fbc
00000080: 195a ffbc e03b 30bd 8605 7abd cfe2 fdbc
00000090: f389 17bd 90ac 06bc 25a3 cabc 2b47 62bd
000000a0: 547d 8dbd 66dc 7ebb 7f57 353d 4a8d 6dbd
000000b0: ba48 d9bc 0fc5 57bd 851f 74bd 9931 52bd
000000c0: cade 08bd 3ddb 9b3d e408 4abd f4b7 36bd
000000d0: 5db7 2abd 8a31 dabc 7d3a eebc 2b36 143d
000000e0: 6161 b5bc 7887 21bd 14ee 4ebd 9163 2abd
000000f0: 2df2 15bd 44c4 6dbd 3eaf 6fbd 91b4 693d

conv1.1.running_mean f4 [64]
4.3054204 1.7528305 3.4127786 1.2976857 4.5492444 0.9685931 3.7175944 2.3377275
3.114794 3.0887375 3.8996787 2.0082097 1.1902714 -3.7506876 -0.39409596 1.9201982
3.6755662 -3.2077894 0.659039 2.8594823 3.7205768 1.6471047 0.4818691 0.61539704
2.8511233 2.0583615 -4.186848 4.2042465 3.3168595 4.28241 2.5635765 1.8585188
1.8947843 2.82964 5.4066997 -0.26677504 4.000198 2.9644353 1.0672565 3.4146779
4.8359094 0.015976727 -4.2922745 6.08217 0.21315953 2.138739 1.9293847 -0.022607863
0.70519054 -5.2308245 4.7897367 3.2969162 0.7468983 2.668134 0.19590767 0.51011705
1.1921318 1.0117893 3.42453 0.7279399 4.820614 5.8377457 5.4697328 -4.23107
00000000: 01c6 8940 c05c e03f f76a 5a40 911a a63f
00000010: 6993 9140 b8f5 773f 11ed 6d40 549d 1540
00000020: c958 4740 e0ad 4540 5694 7940 8286 0040
00000030: d05a 983f 440b 70c0 f2c6 c9be 0ec9 f53f
00000040: 7a3c 6b40 6c4c 4dc0 c8b6 283f c201 3740
00000050: ee1d 6e40 54d4 d23f 8cb7 f63e a98a 1d3f
00000060: ce78 3640 32bc 0340 a9fa 85c0 3089 8640
00000070: 6d47 5440 8109 8940 a311 2440 f2e3 ed3f
00000080: 4b88 f23f d218 3540 af03 ad40 bd96 88be
00000090: 9f01 8040 4fb9 3d40 dc9b 883f 158a 5a40
000000a0: c5bf 9a40 a0e1 823c 505a 89c0 23a1 c240
000000b0: 7e46 5a3e 1ae1 0840 14f6 f63f 2034 b9bc
000000c0: 5e87 343f ea62 a7c0 8645 9940 ad00 5340
000000d0: ba34 3f3f b5c2 2a40 059c 483e 0897 023f
000000e0: c697 983f 5082 813f 802b 5b40 455a 3a3f
000000f0: 7842 9a40 d0ce ba40 0d08 af40 ed64 87c0

conv1.1.running_var f4 [64]
1127.217 4083.3928 1029.371 220.61708 1832.8546 234.24803 1026.273 178.19029
1099.9666 443.37833 1665.765 925.2552 1360.04 820.71265 707.98737 1783.3942
1457.2292 385.15317 767.74786 172.17421 1081.945 428.03387 277.95636 2847.8484
710.63806 2116.8445 536.62146 1050.6787 1206.2577 982.43585 936.43195 874.22644
301.07312 373.3237 1060.7025 1732.6158 284.86453 345.01572 740.88043 1267.0728
502.70712 243.55269 342.32074 1327.7373 274.83734 1246.3956 845.4641 421.97565
2052.3374 221.0741 2545.297 562.7813 277.96127 2039.7946 363.65967 1556.7819
210.33496 234.75229 876.32806 1943.1816 1053.8527 935.3209 1969.488 298.2828
00000000: f2e6 8c44 4936 7f45 dfab 8044 f99d 5c43
00000010: 591b e544 7f3f 6a43 bc48 8044 b730 3243
00000020: ee7e 8944 6db0 dd43 7b38 d044 5550 6744
00000030: 4801 aa44 9c2d 4d44 31ff 3044 9dec de44
00000040: 5627 b644 9b93 c043 ddef 3f44 992c 2c43
00000050: 3d3e 8744 5604 d643 6afa 8a43 93fd 3145
00000060: d6a8 3144 834d 0445 c627 0644 b855 8344
00000070: 3fc8 9644 e59b 7544 a51b 6a44 7e8e 5a44
00000080: 5c89 9643 6fa9 ba43 7b96 8444 b593 d844
00000090: a96e 8e43 0382 ac43 5938 3944 5462 9e44
000000a0: 835a fb43 7d8d 7343 0e29 ab43 98f7 a544
000000b0: 2e6b 8943 a9cc 9b44 b45d 5344 e2fc d243
000000c0: 6645 0045 f812 5d43 c114 1f45 01b2 0c44
000000d0: 0bfb 8a43 6df9 fe44 70d4 b543 0599 c244
000000e0: c055 5243 96c0 6a43 ff14 5b44 d0e5 f244
000000f0: 49bb 8344 8ad4 6944 9e2f f644 3324 9543

fc1.0.weight f4 [128, 128]
0.08260432 0.00538617 0.0593211 -0.059076782 -0.06786882 0.03015083 -0.010900592 0.07552898
0.029273357 -0.074796304 -0.028231964 0.016594307 -0.04773695 0.046760418 -0.044651985 0.02009057
0.055708725 -0.091598466 -0.041164342 0.102887936 0.05999694 0.04080477 -0.051772337 -0.0805227
0.040889453 3.0239724e-05 0.0028616688 0.03863307 -0.025607008 0.017242849 0.02082111 -0.049821302
-0.07244453 0.025632912 0.01560229 0.042548172 -0.02578088 0.083096765 -0.04160599 0.065561906
0.079196334 0.07847162 -0.047296025 -0.03067248 -0.032857925 0.047675602 -0.0312358 -0.08195183
0.030104473 0.022267193 0.087825395 0.0045539974 -0.019305997 -0.023353398 0.017472446 -0.0803914
-0.03618826 0.01757451 0.07058066 0.08663048 -0.011849955 0.031327188 -0.057810426 -0.039135087
0.08793448 0.009419912 0.057217967 0.025138848 0.042077936 0.014331798 0.04542383 -0.025355367
-0.019996922 0.03633478 -0.017951868 0.09918246 -0.0010044958 -0.07310516 -0.066287026 0.03691441
0.10072357 -0.018140653 -0.0033395023 0.09475576 -0.0107587045 -0.06926028 0.027237255 0.057958074
-0.06722121 0.054251455 0.01470585 -0.038950138 0.027193274 0.09196042 0.015056831 0.038341146
0.04394023 -0.009127922 0.006653644 0.1030322 -0.032896567 0.06528884 0.046452887 -0.0172696
-0.0031356285 0.11215499 0.01716801 -0.022431446 -0.013351438 0.08196455 0.026622267 -0.08702979
-0.057405427 0.08324715 0.061397713 0.12567285 0.005090508 0.08324754 0.095048 -0.08762759
-0.07608859 0.064474046 -0.070380464 -0.004014938 -0.0064874473 -0.0759382 0.00063636317 0.038594075
0.0037601104 0.045702565 -0.029687187 0.09170396 0.07897712 0.10031632 0.06246159 -0.0147970375
-0.07166466 0.08777832 -0.048273303 0.06989304 0.007871544 0.01277708 0.07102397 -0.049637113
0.04586512 -0.021382239 -0.052211754 0.08987496 -0.01533664 -0.041282885 0.0658159 0.054590713
-0.033214618 0.0051038 -0.007288963 0.03759343 0.009405015 0.09613291 0.074668065 0.051065546
0.09449283 0.0062747523 -0.046620388 -0.08600997 -0.050348196 0.0061418293 -0.02868514 0.0030791177
0.08369045 0.052570213 -0.098423645 0.008363483 -0.072726995 -0.045332182 -0.015222933 -0.006091002
0.0029856423 -0.024203816 0.09576791 0.078864925 -0.083909445 -0.042153604 -0.03694984 0.022569498
0.05511064 0.08566011 0.05409602 -0.01835805 0.07762444 0.074014015 -0.08494903 0.004309244
0.030242447 -0.056464575 -0.029588833 -0.04368155 -0.06135012 -0.039693084 -0.0579159 0.0027488628
0.022855947 0.039530948 0.02438347 0.07790107 -0.00911274 -0.06004231 0.08153907 -0.05913341
0.05163232 -0.05760433 0.04519975 -0.0072621354 0.0338939 -0.029897159 -0.06535127 0.06074063
0.099847406 -0.07318032 0.0626761 -0.044177424 0.039033532 0.02991847 0.1090231 0.07078666
-0.0020175392 0.09618567 0.037302975 -0.02014989 0.029990532 0.014810252 -0.063413605 0.0002706966
0.027923802 0.046365865 0.02088999 0.025145467 -0.029619157 0.058714386 -0.03719417 -0.06199185
-0.037513588 -0.09727718 -0.020665774 -0.015063245 -0.05814331 -0.04116696 -0.030694442 0.09729277
0.094021544 0.074960284 0.05833333 0.108968824 -0.04226362 -0.0077249617 -0.077512726 -0.057767596
00000000: 742c a93d 787e b03b affa 723d 7ffa 71bd
00000010: cffe 8abd e0fe f63c 6698 32bc f0ae 9a3d
00000020: aece ef3c ce2e 99bd b846 e7bc c9f0 873c
00000030: d287 43bd da87 3f3d 00e5 36bd fb94 a43c
00000040: d52e 643d fa97 bbbd f19b 28bd e9b6 d23d
00000050: 5abf 753d e722 273d 3b0f 54bd 16e9 a4bd
00000060: b37b 273d 50ab fd37 d68a 3b3b b63d 1e3d
00000070: cac5 d1bc e040 8d3c 0891 aa3c 6c11 4cbd
00000080: cc5d 94bd 1dfc d13c bfa0 7f3c fe46 2e3d
00000090: 6d32 d3bc a32e aa3d 0b6b 2abd 5245 863d
000000a0: b031 a23d bbb5 a03d 7ab9 41bd da44 fbbc
000000b0: 0896 06bd 7e47 433d 38e2 ffbc 5cd6 a7bd
000000c0: a89d f63c b069 b63c cddd b33d b339 953b
000000d0: 9c27 9ebc a04f bfbc 6022 8f3c 3fa4 a4bd
000000e0: 243a 14bd 6bf8 8f3c 988c 903d 526b b13d
000000f0: 5026 42bc f050 003d a0ca 6cbd 1d4c 20bd
00000100: fe16 b43d f955 1a3c 635d 6a3d fcef cd3c
00000110: ea59 2c3d ebcf 6a3c 570e 3a3d 0fb6 cfbc
00000120: 96d0 a3bc c7d3 143d cc0f 93bc 2c20 cb3d
00000130: 49a9 83ba 28b8 95bd 7ec1 87bd 9033 173d
00000140: 2948 ce3d b59b 94bc 8ddb 5abb 4f0f c23d
00000150: 4745 30bc 55d8 8dbd aa20 df3c 7265 6d3d
00000160: 46ab 89bd c636 5e3d cef0 703c 2e8a 1fbd
00000170: 6ec4 de3c bf55 bc3d edb0 763c 9b0b 1d3d
00000180: acfa 333d 488d 15bc d006 da3b 8c02 d33d
00000190: 8dbe 06bd 28b6 853d 6245 3e3d fa78 8dbc
000001a0: 1e7f 4dbb 84b1 e53d eda3 8c3c 27c2 b7bc
000001b0: fdbf 5abc 08dd a73d f116 da3c ad3c b2bd
000001c0: f421 6bbd 7b7d aa3d 2b7c 7b3d 62b0 003e
000001d0: 47ce a63b b07d aa3d 87a8 c23d 1876 b3bd
000001e0: 56d4 9bbd f80a 843d a223 90bd be8f 83bb
000001f0: a794 d4bb 7d85 9bbd 9cd1 263a d214 1e3d
00000200: 2f6c 763b 9d32 3b3d 8b32 f3bc 49cf bb3d
00000210: c2be a13d a572 cd3d b9d7 7f3d 466f 72bc
00000220: ecc4 92bd 1fc5 b33d 3aba 45bd 1524 8f3d
00000230: a6f7 003c f556 513c 0475 913d 4950 4bbd
00000240: 10dd 3b3d ce29 afbc fedb 55bd 5d10 b83d
00000250: 8846 7bbc 3e18 29bd 7dca 863d 839a 5f3d
00000260: 0d0c 08bd c73d a73b 41d8 eebb 92fb 193d
00000270: 7e17 1a3c 55e1 c43d 92eb 983d 1b2a 513d
00000280: 7585 c13d 709c cd3b 05f5 3ebd ff25 b0bd
00000290: e939 4ebd 6641 c93b 19fd eabc 06cb 493b
000002a0: e665 ab3d dd53 573d 5692 c9bd fd06 093c
000002b0: e4f1 94bd 3dae 39bd 9c69 79bc 0797 c7bb
000002c0: c4aa 433b 1547 c6bc f721 c43d ef83 a13d
000002d0: b7d8 abbd 42a9 2cbd b758 17bd abe3 b83c
000002e0: b2bb 613d 916e af3d ca93 5d3d 9f63 96bc
000002f0: 90f9 9e3d a994 973d c2f9 adbd 8f34 8d3b
00000300: 02bf f73c 6647 67bd 4864 f2bc 6deb 32bd
00000310: 434a 7bbd 3795 22bd 3939 6dbd 4426 343b
00000320: 653c bb3c 34eb 213d d8bf c73c 998a 9f3d
00000330: 9a4d 15bc edee 75bd f5fd a63d e035 72bd
00000340: 697c 533d 85f2 6bbd 6023 393d 35f7 edbb
00000350: 55d4 0a3d e3ea f4bc e3d6 85bd 2bcb 783d
00000360: cc7c cc3d 90df 95bd 545c 803d 63f3 34bd
00000370: a0e1 1f3d 9417 f53c 8147 df3d 99f8 903d
00000380: b138 04bb fefc c43d 01cb 183d 6211 a5bc
00000390: b4ae f53c b3a6 723c fede 81bd 48ec 8d39
000003a0: 75c0 e43c 22ea 3d3d 7c21 ab3c defd cd3c
000003b0: e0a3 f2bc 7f7e 703d ea58 18bd 2beb 7dbd
000003c0: d9a7 19bd 4239 c7bd 454b a9bc d4cb 76bc
000003d0: ae27 6ebd b09e 28bd e972 fbbc 6f41 c73d
000003e0: 5e8e c03d c784 993d eeee 6e3d 0c2b df3d
000003f0: 9e1c 2dbd ad21 fdbb febe 9ebd b79d 6cbd

fc1.0.bias f4 [128]
-0.070152156 0.039269242 -0.035024963 0.13898553 0.016814949 0.0431011 -0.051623415 -0.044386413
-0.03620693 -0.039369784 -0.05866105 0.008758424 0.10930541 0.037886824 -0.07244285 0.073491454
0.01409145 -0.036189526 -0.12645333 0.016710825 -0.07657965 0.112291746 -0.113837205 -0.011153747
0.13496491 -0.06175808 0.0970462 0.019931491 0.022855831 -0.064746745 0.097211145 -0.04128424
-0.11738875 0.12509902 0.082281835 0.09563577 0.056959335 0.023510288 0.15607204 -0.038483404
-0.09107795 0.13363184 0.11584493 0.06802206 0.06459508 -0.09298873 -0.0067357486 -0.0660957
-0.03563095 -0.09852715 0.028452354 -0.05846161 -0.12652637 0.0068048597 -0.017985096 0.13816975
0.14603166 -0.039752644 0.14437659 -0.079539426 -0.043643355 0.08811025 -0.08971267 0.067662336
0.08349118 0.054885503 0.07832926 0.11305654 0.01959672 0.0063808975 -0.078997165 0.020715239
0.14628984 -0.0028008781 0.061845064 -0.026581852 -0.024172235 0.085407265 0.0005767694 -0.069503866
0.1431 -0.038509537 -0.038352087 -0.04512256 -0.07221917 0.0065213977 -0.021060001 -0.057447705
-0.022009034 0.027216105 0.038947724 -0.05129511 -0.11801031 -0.06502885 0.14971802 -0.02198448
0.008621647 0.044754665 -0.13182017 -0.017978538 0.041475266 -0.0674445 0.055205002 0.07754522
0.003269168 0.04142148 -0.01788021 -0.016508061 -0.07296297 -0.01992786 0.017175363 -0.048472427
0.06935337 -0.034366194 -0.011167318 -0.0065223607 -0.0832089 0.0073406454 -0.081329755 0.11643101
0.07252874 -0.012840886 0.040649183 -0.04704179 -0.08586266 0.10712302 -0.09674713 0.1235923
00000000: efab 8fbd c9d8 203d 5676 0fbd 3952 0e3e
00000010: 81bf 893c c78a 303d 1373 53bd 87ce 35bd
00000020: b84d 14bd 3642 21bd 9246 70bd 7e7f 0f3c
00000030: 84db df3d 372f 1b3d eb5c 94bd b082 963d
00000040: d3df 663c 783b 14bd fb7c 01be 24e5 883c
00000050: cbd5 9cbd 37f9 e53d 7b23 e9bd 35be 36bc
00000060: 3e34 0a3e 0af6 7cbd 28c0 c63d 5e47 a33c
00000070: 273c bb3c f199 84bd a316 c73d aa19 29bd
00000080: 8369 f0bd f519 003e 6183 a83d b0dc c33d
00000090: 314e 693d a698 c03c 59d1 1f3e c6a0 1dbd
000000a0: 1487 babd c9d6 083e 1b40 ed3d 264f 8b3d
000000b0: 6d4a 843d e070 bebd 8eb7 dcbb 2f5d 87bd
000000c0: c2f1 11bd 9ac8 c9bd e914 e93c 7175 6fbd
000000d0: 2190 01be 4dfb de3b 7b55 93bc 5f7c 0d3e
000000e0: 5389 153e abd3 22bd 75d7 133e 91e5 a2bd
000000f0: 60c3 32bd 2673 b43d 47bb b7bd 8d92 8a3d
00000100: 6cfd aa3d 9fcf 603d 176b a03d 308a e73d
00000110: 4d89 a03c d916 d13b 44c9 a1bd 01b3 a93c
00000120: 01cd 153e f08e 37bb 4051 7d3d 2fc2 d9bc
00000130: da04 c6bc 01ea ae3d 5732 173a 0b58 8ebd
00000140: ce88 123e 2dbc 1dbd 1417 1dbd 6fd2 38bd
00000150: a5e7 93bd 73b1 d53b 0686 acbc 494e 6bbd
00000160: 4a4c b4bc 4ff4 de3c a687 1f3d d21a 52bd
00000170: 64af f1bd d92d 85bd ae4f 193e cc18 b4bc
00000180: cf41 0d3c ab50 373d defb 06be ba47 93bc
00000190: f8e1 293d 5820 8abd a41e 623d 07d0 9e3d
000001a0: 8a3f 563b 92a9 293d 8579 92bc ea3b 87bc
000001b0: 9c6d 95bd c03f a3bc 59b3 8c3c 068b 46bd
000001c0: 2409 8e3d 91c3 0cbd 20f7 36bc 87b9 d5bb
000001d0: 6e69 aabd cc89 f03b 3790 a6bd 6273 ee3d
000001e0: f389 943d 9462 52bc c27f 263d e4ae 40bd
000001f0: c3d8 afbd 5063 db3d 5c23 c6bd f61d fd3d

fc1.3.weight f4 [3, 128]
-0.017987275 0.0222913 -0.030201329 0.01581489 0.0043861247 0.1027224 0.0990433 -0.06312654
0.06625911 0.08602534 0.04522431 0.0858874 -0.07860561 0.03788599 0.104816884 -0.07290216
-0.117598005 0.045853373 0.08644351 0.0138722565 0.09182063 -0.09751067 0.036355123 -0.08261845
0.03217709 -0.14350747 -0.03514935 0.04111814 -0.033879034 0.029333463 0.07500758 0.013971067
0.08672753 0.006250018 -0.09237527 -0.113650054 -0.106759235 0.0009972003 -0.07868786 0.08507105
0.09401921 -0.07500277 0.002006431 -0.02849183 0.091336325 0.030356139 0.054581136 -0.06235968
-0.06526665 0.09655459 -0.009863269 -0.030349454 0.09037466 -0.059604514 0.10104272 -0.038966086
-0.06971506 0.021855297 -0.13100024 -0.11333645 -0.056258194 -0.102809824 -0.030678716 0.016693534
0.032858904 -0.07954636 -0.12483438 -0.05099358 -0.12664561 0.045452483 0.07245124 0.08566991
-0.08279272 -0.06148179 0.055429723 0.08963782 0.07195127 -0.07032872 0.08355873 0.03203633
-0.049042877 -0.055727594 0.024911826 0.025656682 0.057769828 0.037718426 0.077824205 -0.05698072
0.013921558 -0.10861699 0.11259463 0.03219304 0.027924541 0.026025234 -0.07754718 -0.050386418
0.030708559 0.103746526 0.026078088 0.042532552 -0.005679402 -0.04050197 -0.07007677 -0.06551708
-0.13541321 -0.13541257 0.06422334 -0.08944766 0.066193424 0.053204063 0.015798235 0.07767787
-0.10886618 -0.119960964 0.08823533 0.05308666 0.0831946 -0.018740637 0.036519792 0.030015303
-0.12905174 -0.028720185 0.059213746 -0.09890163 -0.028637348 -0.06748398 -0.00475592 0.07013604
-0.14366719 -0.01752117 -0.07662568 0.12631987 -0.06752925 0.038595334 0.046815194 -0.12787127
-0.051233694 -0.0914454 -0.068892814 0.008366096 0.0025397781 -0.08385943 0.025556363 0.07321489
-0.051967427 -0.05693304 0.023126692 -0.0071050273 -0.08126456 0.025628608 -0.058843236 0.06271291
0.14721604 -0.07122173 0.11153257 -0.00025877357 -0.07624922 0.018694686 0.10784389 -0.10705534
-0.11751301 0.08800251 0.060202304 0.08540117 0.0985761 -0.0069412175 0.1297322 -0.09134907
-0.026635751 0.084167466 0.114282414 0.12701617 0.077747576 -0.14075246 -0.069707714 -0.10535215
-0.08401345 -0.0983033 0.13760193 -0.06696585 -0.059768487 0.027299592 0.034232814 0.026543787
0.16811854 -0.067098744 0.08075842 -0.10179891 -0.014870779 0.0943403 -0.05938676 0.07613579
0.08298753 0.030754928 0.11258911 0.14562887 0.03207297 -0.039809227 -0.13874093 -0.01640077
0.07716508 0.048327092 -0.033548176 0.03063345 -0.008546112 0.065709844 0.06678758 -0.051303387
0.09707313 -0.06425332 -0.05883472 -0.044514414 -0.035408996 -0.0051838616 -0.03196223 -0.016687248
0.11459243 0.012325169 0.067112684 0.01653589 -0.11274232 0.0022694098 0.15392652 -0.0034138602
0.052048355 0.020466462 -0.097322665 -0.017311705 0.045841597 -0.060998287 0.07633396 0.09591072
-0.036420234 0.10939205 0.048560787 -0.045871045 -0.034551427 -0.021856507 0.07888313 0.01636603
0.09984176 -0.08177299 -0.050859183 -0.047262467 -0.07924236 0.107063465 0.011834676 0.16122608
0.046298955 0.00014651092 0.051955912 -0.07040734 -0.06813359 0.0533485 -0.1231288 0.08579103
00000000: 0d5a 93bc 3f9c b63c c768 f7bc 3a8e 813c
00000010: 7bb9 8f3b 1f60 d23d 37d7 ca3d 7d48 81bd
00000020: dbb2 873d 0e2e b03d 203d 393d bce5 af3d
00000030: fafb a0bd 572e 1b3d 3caa d63d ba4d 95bd
00000040: 39d7 f0bd bfd0 3b3d 4c09 b13d 7648 633c
00000050: 740c bc3d adb3 c7bd 1ce9 143d dd33 a9bd
00000060: 20cc 033d 9ff3 12be c4f8 0fbd 7f6b 283d
00000070: bec4 0abd bb4c f03c 939d 993d e7e6 643c
00000080: 349e b13d f3cc cc3b 3f2f bdbd 5cc1 e8bd
00000090: 96a4 dabd 7db4 823a 1a27 a1bd bb39 ae3d
000000a0: 258d c03d 0d9b 99bd 547e 033b b367 e9bc
000000b0: 8a0e bb3d 70ad f83c 7890 5f3d dd6c 7fbd
000000c0: 85aa 85bd 6abe c53d 8c99 21bc 6b9f f8bc
000000d0: 5a16 b93d dd23 74bd 7cef ce3d e79a 1fbd
000000e0: c5c6 8ebd e109 b33c ed24 06be f11c e8bd
000000f0: fe6e 66bd f58d d2bd ee51 fbbc e1c0 883c
00000100: 0f97 063d 34e9 a2bd 2ba9 ffbd a5de 50bd
00000110: 63af 01be 622c 3a3d 5161 943d b573 af3d
00000120: 3b8f a9bd 54d4 7bbd 470a 633d 0994 b73d
00000130: 305b 933d 8108 90bd d720 ab3d 8738 033d
00000140: 2fe1 48bd 9e42 64bd e313 cc3c f62d d23c
00000150: 0ea0 6c3d a37e 1a3d 4c62 9f3d 9e64 69bd
00000160: 3f17 643c 9672 debd 0398 e63d d9dc 033d
00000170: 02c2 e43c df32 d53c 0ed1 9ebd fd61 4ebd
00000180: 8490 fb3c 0f79 d43d b7a1 d53c 9d36 2e3d
00000190: 471a babb 65e5 25bd 6984 8fbd d22d 86bd
000001a0: c3a9 0abe 98a9 0abe 8787 833d 5630 b7bd
000001b0: 6b90 873d 81ec 593d 4d6b 813c 9315 9f3d
000001c0: 3bf5 debd 18ae f5bd bab4 b43d 6671 593d
000001d0: ee61 aa3d f785 99bc c795 153d a7e2 f53c
000001e0: 2426 04be 9846 ebbc 1d8a 723d f08c cabd
000001f0: df98 eabc 0a35 8abd 8cd7 9bbb 7ca3 8f3d
00000200: 7e1d 13be 8f88 8fbc eded 9cbd ff59 013e
00000210: c74c 8abd 2416 1e3d 4ac1 3f3d b0f0 02be
00000220: 6cda 51bd ba47 bbbd ad17 8dbd f311 093c
00000230: 6872 263b 7ebe abbd 945b d13c b0f1 953d
00000240: ccdb 54bd 9f32 69bd 3074 bd3c 4ad1 e8bb
00000250: 096e a6bd 16f3 d13c 9b05 71bd a06f 803d
00000260: cdbf 163e b3dc 91bd 306b e43d 00ac 87b9
00000270: 8d28 9cbd 9925 993c 42dd dc3d d53f dbbd
00000280: a9aa f0bd a93a b43d b196 763d cfe6 ae3d
00000290: 44e2 c93d 2773 e3bb 85d8 043e 3915 bbbd
000002a0: 3833 dabc fe5f ac3d e60c ea3d 8710 023e
000002b0: 1f3a 9f3d 6a21 10be ebc2 8ebd dec2 d7bd
000002c0: 3e0f acbd 3e53 c9bd 85e7 0c3e 6425 89bd
000002d0: cdcf 74bd 65a3 df3c b537 0c3d 5b72 d93c
000002e0: 4427 2c3e 116b 89bd ac64 a53d f27b d0bd
000002f0: 91a4 73bc 7d35 c13d 883f 73bd 15ed 9b3d
00000300: 5ef5 a93d c2f1 fb3c 1f95 e63d bc1f 153e
00000310: f25e 033d 000f 23bd 1a12 0ebe e85a 86bc
00000320: ba08 9e3d a1f2 453d d069 09bd 00f3 fa3c
00000330: fe04 0cbc e292 863d edc7 883d 8023 52bd
00000340: 47ce c63d 3f97 83bd adfc 70bd bf54 36bd
00000350: 0609 11bd 62dd a9bb d4ea 02bd b2b3 88bc
00000360: 70af ea3d 81ef 493c 6072 893d 4676 873c
00000370: 72e5 e6bd 61ba 143b ea9e 1d3e 12bb 5fbb
00000380: a830 553d 48a9 a73c 1b51 c7bd 47d1 8dbc
00000390: 66c4 3b3d 57d9 79bd fb54 9c3d d76c c43d
000003a0: 622d 15bd f008 e03d ade7 463d 47e3 3bbd
000003b0: cc85 0dbd 6b0c b3bc 7a8d a13d 0d12 863c
000003c0: d679 cc3d 9978 a7bd b851 50bd 4a96 41bd
000003d0: d249 a2bd 1744 db3d 3be6 413c 7318 253e
000003e0: f9a3 3d3d baa0 1939 b9cf 543d b931 90bd
000003f0: a089 8bbd f583 5a3d f42a fcbd 35b3 af3d

fc1.3.bias f4 [3]
-0.07673214 0.06887495 0.0724989
00000000: bd25 9dbd 4f0e 8d3d 4e7a 943d

exp_avg f4 [64, 60, 3]
9.3535746e-05 -0.0004081095 0.0005404712 0.00030288604 -0.0002760299 0.00047056391 0.0003740479 -0.00035321302
0.00023474621 0.000315075 -0.000429092 4.101256e-05 -8.3679166e-05 -0.00051357754 -0.00023257427 -0.00020526166
-0.00031930787 -0.00031957155 -1.8613557e-05 -2.639919e-05 -6.837468e-05 0.00019333215 0.00010448931 -3.398734e-05
0.00022888283 0.00011079517 -0.00022586531 -1.514035e-05 -1.5234825e-05 -0.0006121932 -0.0003392311 -4.7289228e-05
-0.0010488386 -0.00038018156 0.00022235139 -0.0011346791 -0.00026430818 0.0004515303 -0.0006845608 -6.211327e-05
0.00066166633 -0.00032758748 3.5355908e-05 0.0007515627 0.00027895058 -5.591704e-05 0.0006346401 0.0004427416
-0.00017529144 0.00053492625 0.00023404285 -0.00017094876 0.00047382922 7.865979e-05 -0.00019143827 0.0004367178
-8.4539955e-05 -9.825094e-05 0.00046040092 0.0002333824 2.8857969e-05 0.00051225617 0.0006319844 0.00013326757
0.00047251582 0.0009230298 0.0002161995 0.00033440383 0.0009349346 0.00020345634 6.366818e-05 0.00071747764
0.00020789745 -0.00011766208 0.000704288 0.00030616083 -0.00017644267 0.00088505447 0.0003298822 -0.0002733918
0.0007854978 0.00029866237 -0.00039813918 0.00086652284 0.00029258282 -0.00039594382 0.0006895336 8.211683e-05
-0.00044360376 0.00034461918 4.2226065e-06 -0.00033095572 0.00033106195 -6.54387e-05 -0.00015412921 0.00036639147
-1.9992493e-05 6.858014e-05 0.00027258584 0.00015060823 0.00017944239 0.0001563667 0.0001390116 0.00013822508
-6.82496e-05 -9.653745e-05 1.19533315e-05 -0.00014105672 -0.0003091642 7.7579076e-05 -0.00019110362 -0.00034890557
0.0002808666 -0.00039383036 -0.00038806847 0.00040386597 -0.0003199336 -0.00021493582 0.0006472052 -0.00030477328
-0.000102811966 0.0007819093 -0.00029825344 -8.909266e-05 0.00071238045 -0.0005562388 -0.000107748485 0.000700463
-0.0005898885 -0.00020233777 0.00038497537 -0.00072032877 -0.00017355797 0.00016872033 -0.0005367384 -9.757117e-07
0.00028938122 0.00015863316 0.0001415385 0.00053418 0.0009135672 0.00023372415 0.00077883765 0.0014007868
0.00028475243 0.00075422355 0.0014329002 0.00032690214 0.0004853359 0.0012458159 0.00019868139 -0.00011436938
0.00084141735 0.00012425646 -0.0005632323 0.0007054752 0.0002222735 -0.00047423027 0.0009997864 0.00026593122
-0.0003040545 0.0010415764 0.00032570743 -0.00014519345 0.0010966312 0.00025721244 -0.00018234165 0.0008738448
0.00011869282 -0.00021719825 0.00039111427 -1.8826537e-05 -0.0001708259 8.0725935e-05 -9.301309e-05 -4.512268e-05
-0.00016762978 -7.0245485e-05 4.502535e-05 -0.00033592575 -0.00040802578 -0.0012579069 -0.00045070713 -0.00011241741
-0.00072935445 -0.0001245383 3.3981796e-05 -0.0002852317 0.0003313266 9.742386e-05 -8.96579e-05 0.00041933128
0.000106225634 -0.00014947283 0.0006611652 0.0002244171 -0.00018806098 0.0005273461 0.00023802923 -0.00032095492
0.0005452955 0.0003188857 -0.00027345453 0.000516204 0.00047371135 -9.189316e-05 0.0005293168 0.00059136515
0.00015113925 0.0005835927 0.0007795835 0.000505575 0.00067506306 0.0008462786 0.0006109605 0.00071999634
0.00048115785 0.00023924663 0.000569289 0.00020429568 -5.7706955e-05 0.00035023602 -0.00023757949 -0.00049762713
0.00019258012 -0.0003658865 -0.0005630971 4.416042e-05 -0.00013394793 -0.00016514123 -8.581053e-05 0.0001701786
0.00035424196 -8.979174e-05 0.00042500053 0.00071383617 1.5182028e-05 0.00032523906 0.0007256478 0.00015276417
7.017724e-06 0.00045625944 -8.2257306e-05 -0.00024590484 0.00016141254 -0.00013826627 -0.00029311038 -2.7402399e-05
-0.0002032274 -3.8765218e-05 3.907178e-05 -0.00023706855 7.147561e-05 1.0183778e-05 -0.0003161826 -0.00020819316
00000000: 9f28 c438 88f7 d5b9 69ae 0d3a adcc 9e39
00000010: 1bb8 90b9 05b6 f639 dc1b c439 732f b9b9
00000020: 3526 7639 a730 a539 c1f7 e0b9 e704 2c38
00000030: e97c afb8 9ba1 06ba 2edf 73b9 823b 57b9
00000040: c768 a7b9 2b8c a7b9 4f24 9cb7 d473 ddb7
00000050: 6064 8fb8 34b9 4a39 4521 db38 a18d 0eb8
00000060: 4400 7039 b45a e838 42d6 6cb9 4f03 7eb7
00000070: 1399 7fb7 977b 20ba d4da b1b9 6c58 46b8
00000080: 2f79 89ba 1b53 c7b9 ff26 6939 83b9 94ba
00000090: d892 8ab9 5fbb ec39 1974 33ba cf42 82b8
000000a0: ad73 2d3a 0cc0 abb9 1e4b 1438 8504 453a
000000b0: 1d40 9239 7788 6ab8 fa5d 263a c61f e839
000000c0: 70ce 37b9 4b3a 0c3a 6669 7539 b540 33b9
000000d0: 486c f839 27f6 a438 d2bc 48b9 45f7 e439
000000e0: 0b4b b1b8 120c ceb8 f761 f139 1cb8 7439
000000f0: 0414 f237 ee48 063a c1ab 253a bebd 0b39
00000100: 00bc f739 7bf7 713a 9db3 6239 ec52 af39
00000110: 6616 753a e556 5539 9885 8538 1c15 3c3a
00000120: 0cff 5939 59c1 f6b8 f89f 383a 3684 a039
00000130: 7803 39b9 0003 683a 0af4 ac39 0756 8fb9
00000140: dde9 4d3a c995 9c39 56bd d0b9 5d27 633a
00000150: cd65 9939 ae96 cfb9 d1c1 343a 2336 ac38
00000160: 7d93 e8b9 01ae b439 eaaf 8d36 2084 adb9
00000170: 6292 ad39 223c 89b8 bf9d 21b9 3b18 c039
00000180: 8db5 a7b7 afd2 8f38 dae9 8e39 97ec 1d39
00000190: b328 3c39 5ef6 2339 a4c3 1139 83f0 1039
000001a0: 3a21 8fb8 2674 cab8 2b8b 4837 a0e8 13b9
000001b0: 5117 a2b9 f3b1 a238 fd62 48b9 50ed b6b9
000001c0: 4741 9339 047b ceb9 ab75 cbb9 f9bd d339
000001d0: c3bc a7b9 6560 61b9 35a9 293a fac9 9fb9
000001e0: c19c d7b8 0bf9 4c3a e65e 9cb9 42d7 bab8
000001f0: 0bbf 3a3a 8ed0 11ba 07f7 e1b8 479f 373a
00000200: bfa2 1aba a22a 54b9 85d6 c939 72d4 3cba
00000210: 1dfd 35b9 85ea 3039 e7b3 0cba 33f5 82b5
00000220: 17b8 9739 c456 2639 f469 1439 3708 0c3a
00000230: 757c 6f3a d913 7539 e92a 4c3a 9b9a b73a
00000240: d34a 9539 16b7 453a 27d0 bb3a 1064 ab39
00000250: af74 fe39 a54a a33a 2155 5039 98d9 efb8
00000260: 9092 5c3a d74a 0239 e1a5 13ba a4ef 383a
00000270: 1712 6939 1ca2 f8b9 440b 833a af6c 8b39
00000280: 8169 9fb9 8185 883a b6c3 aa39 123f 18b9
00000290: d6bc 8f3a 78da 8639 f732 3fb9 bb12 653a
000002a0: b9ea f838 b6bf 63b9 780e cd39 aeed 9db7
000002b0: ba1f 33b9 684b a938 0610 c3b8 1c42 3db8
000002c0: c7c5 2fb9 c250 93b8 9ad9 3c38 311f b0b9
000002d0: 4bec d5b9 5ae0 a4ba e34c ecb9 a3c1 ebb8
000002e0: 2632 3fba 7f96 02b9 ad87 0e38 278b 95b9
000002f0: e7b5 ad39 0950 cc38 b806 bcb8 b1d9 db39
00000300: 74c5 de38 cfbb 1cb9 0c52 2d3a 8251 6b39
00000310: 3c32 45b9 993d 0a3a 7c97 7939 d745 a8b9
00000320: 29f2 0e3a 1d30 a739 725e 8fb9 dd51 073a
00000330: 765c f839 c4b6 c0b8 d9c1 0a3a d805 1b3a
00000340: 227b 1e39 3efc 183a f75c 4c3a 9088 043a
00000350: b7f6 303a ccd8 5d3a dd28 203a 23be 3c3a
00000360: ea43 fc39 47de 7a39 573c 153a 3438 5639
00000370: 5f0a 72b8 e29f b739 c21e 79b9 3173 02ba
00000380: 55ef 4939 74d4 bfb9 cf9c 13ba e438 3938
00000390: 6074 0cb9 c329 2db9 2df5 b3b8 f871 3239
000003a0: 8db9 b939 934e bcb8 9bd2 de39 bc20 3b3a
000003b0: 50b6 7e37 d984 aa39 6639 3e3a 522f 2039
000003c0: ca79 eb36 1b36 ef39 8e81 acb8 caec 80b9
000003d0: d940 2939 92fb 10b9 9cac 99b9 34de e5b7
000003e0: 7119 55b9 d697 22b8 01e1 2338 9b95 78b9
000003f0: 2de5 9538 feda 2a37 4fc5 a5b9 6d4e 5ab9

exp_avg_sq f4 [64, 60, 3]
2.79667e-07 4.692093e-07 3.9944464e-07 1.8546682e-07 6.5595674e-07 4.105763e-07 1.1014801e-07 6.064216e-07
5.012519e-07 4.967503e-08 6.126326e-07 4.4819194e-07 8.489182e-08 5.3153303e-07 4.8428075e-07 1.7165854e-07
3.8778654e-07 6.089329e-07 2.1148479e-07 3.4182256e-07 8.3674735e-07 1.8009005e-07 3.7279773e-07 1.0820025e-06
1.887025e-07 5.1046067e-07 1.318683e-06 2.3518706e-07 5.3225466e-07 1.2864218e-06 1.951694e-07 3.992435e-07
1.0417069e-06 1.2970777e-07 4.9750344e-07 7.6114225e-07 1.7717763e-07 5.937826e-07 5.3573825e-07 1.7860582e-07
4.6040515e-07 5.333404e-07 2.2476853e-07 3.8671234e-07 9.4878925e-07 2.1703688e-07 2.9207942e-07 1.4440536e-06
1.922017e-07 2.7813928e-07 1.1324917e-06 1.4133023e-07 3.8392656e-07 6.535768e-07 9.0696155e-08 3.3538745e-07
5.4381206e-07 1.273368e-07 2.3710126e-07 6.37201e-07 1.2264714e-07 2.7525388e-07 6.7429426e-07 9.251194e-08
3.1602798e-07 7.953504e-07 9.011517e-08 2.4037024e-07 8.6421346e-07 1.7653238e-07 1.5959262e-07 1.0172005e-06
1.9218976e-07 2.4971754e-07 1.0885489e-06 8.8132424e-08 3.8644285e-07 8.152669e-07 1.0593145e-07 4.918707e-07
6.3017495e-07 9.156934e-08 4.3370034e-07 8.176983e-07 1.0235067e-07 4.5342048e-07 8.828481e-07 1.17628154e-07
4.4251027e-07 7.4346013e-07 1.2379434e-07 4.845502e-07 7.008608e-07 7.32446e-08 3.783193e-07 6.787536e-07
8.351208e-08 2.937303e-07 5.342684e-07 1.6231483e-07 3.372158e-07 6.196772e-07 2.2209866e-07 4.3155802e-07
6.1851927e-07 3.9712987e-07 7.00302e-07 5.5880076e-07 5.2861236e-07 1.2147259e-06 5.8253505e-07 8.150822e-07
1.526935e-06 7.378444e-07 8.93401e-07 1.2994337e-06 1.0950549e-06 5.694355e-07 7.285916e-07 9.2157205e-07
3.183798e-07 3.5998286e-07 9.54602e-07 2.0823862e-07 2.8623703e-07 1.1530187e-06 2.909333e-07 4.2674247e-07
9.529448e-07 5.301985e-07 6.6925594e-07 1.00862e-06 3.3568787e-07 5.9135476e-07 6.583077e-07 2.2341602e-07
3.6658955e-07 5.964871e-07 9.153866e-08 2.4014227e-07 8.314939e-07 2.0829829e-07 2.6666896e-07 8.740695e-07
3.3287677e-07 2.7399756e-07 7.175842e-07 3.1935716e-07 2.2986853e-07 6.0558295e-07 1.621124e-07 1.0939376e-07
6.161604e-07 1.2531382e-07 2.5211747e-07 6.277338e-07 1.0676461e-07 4.178567e-07 5.2194997e-07 7.158835e-08
5.0263606e-07 3.7139097e-07 1.07606944e-07 7.155501e-07 4.2601567e-07 2.2034155e-07 6.1003374e-07 5.3728814e-07
2.8033742e-07 4.6899729e-07 4.8972015e-07 2.8005823e-07 4.6357025e-07 6.1653475e-07 1.9289551e-07 3.5009273e-07
9.975821e-07 2.0562337e-07 2.4645084e-07 1.1016664e-06 1.3756551e-07 3.5215547e-07 9.358008e-07 1.1162735e-07
1.4337644e-07 8.2860385e-07 1.2245248e-07 1.2429945e-07 9.160318e-07 7.502523e-08 1.8796297e-07 1.2037175e-06
9.596589e-08 2.3973467e-07 1.1292241e-06 1.02503684e-07 1.09477824e-07 7.2240175e-07 1.4533522e-07 1.5435677e-07
4.9640875e-07 1.1349833e-07 1.9805543e-07 5.396716e-07 1.2420325e-07 2.2478606e-07 5.962791e-07 1.7213728e-07
2.5832344e-07 5.7080155e-07 1.7016276e-07 2.995272e-07 4.897601e-07 1.5916638e-07 3.484072e-07 4.776889e-07
1.9428279e-07 4.6352673e-07 7.9649396e-07 3.0792975e-07 4.0986885e-07 8.5966843e-07 2.0779486e-07 2.2630307e-07
7.531323e-07 1.01893455e-07 2.2454691e-07 5.6480366e-07 6.3336586e-08 1.4816061e-07 4.818527e-07 1.0681481e-07
1.5619302e-07 5.1436933e-07 1.695762e-07 2.142143e-07 3.2214044e-07 2.466986e-07 2.4402786e-07 3.7410294e-07
4.4592454e-07 3.1723178e-07 7.397963e-07 5.0673e-07 2.9134475e-07 1.0462054e-06 2.0380637e-07 1.9581559e-07
9.204832e-07 6.16356e-08 5.5961675e-07 5.287142e-07 1.3443191e-07 9.5277574e-07 4.4988184e-07 1.2311477e-07
00000000: 2425 9634 a3e7 fb34 4173 d634 bb24 4734
00000010: 0115 3035 2d6d dc34 828a ec33 fac8 2235
00000020: c58d 0635 465a 5533 cb73 2435 089f f034
00000030: c64d b633 acae 0e35 85ff 0135 2451 3834
00000040: fa30 d034 8d75 2335 7f14 6334 bc83 b734
00000050: d79c 6035 c75e 4134 ee24 c834 5339 9135
00000060: 269e 4a34 9706 0935 9afd b035 ba87 7c34
00000070: 43e0 0e35 1ea9 ac35 c28f 5134 9c57 d634
00000080: c7d0 8b35 cd45 0b34 2d8c 0535 4c51 4c35
00000090: 373e 3e34 6e64 1f35 a7cf 0f35 cbc6 3f34
000000a0: 9a2d f734 e02a 0f35 e757 7134 579d cf34
000000b0: 4db0 7e35 a50a 6934 17cf 9c34 4ed1 c135
000000c0: 0060 4e34 2c53 9534 1e00 9835 8fc0 1734
000000d0: 771e ce34 7571 2f35 bdc4 c233 4d0f b434
000000e0: 7bfa 1135 13ba 0834 e695 7e34 1f0c 2b35
000000f0: fdb0 0334 9bc6 9334 2601 3535 faaa c633
00000100: 8eaa a934 1080 5535 5785 c133 3c0c 8134
00000110: 4cfc 6735 da8c 3d34 7c5c 2b34 be86 8835
00000120: b85c 4e34 eb10 8634 411a 9235 5043 bd33
00000130: 4d78 cf34 b7d8 5a35 6e7c e333 1909 0435
00000140: 4b29 2935 c7a4 c433 52d7 e834 cd7f 5b35
00000150: e0cb db33 a36d f334 dcfc 6c35 c39a fc33
00000160: 2692 ed34 3192 4735 54ec 0434 0912 0235
00000170: ca22 3c35 a54a 9d33 cf1b cb34 9833 3635
00000180: 4057 b333 fcb1 9d34 a56a 0f35 c348 2e34
00000190: 960a b534 e557 2635 047a 6e34 e2b0 e734
000001a0: 5208 2635 1d35 d534 63fc 3b35 7f00 1635
000001b0: f7e5 0d35 aa09 a335 815f 1c35 06cc 5a35
000001c0: 16f1 cc35 4810 4635 0dd2 6f35 3468 ae35
000001d0: cdf9 9235 4fdb 1835 6f94 4335 f361 7735
000001e0: c9ed aa34 ab43 c134 e01f 8035 3298 5f34
000001f0: 1eac 9934 6cc1 9a35 9131 9c34 0a1b e534
00000200: decd 7f35 f752 0e35 eba6 3335 eb5f 8735
00000210: 9738 b434 97bd 1e35 90b6 3035 21e4 6f34
00000220: afcf c434 481e 2035 e993 c433 e7ec 8034
00000230: d333 5f35 99a8 5f34 b42a 8f34 99a1 6a35
00000240: 3cb6 b234 f019 9334 03a0 4035 1d74 ab34
00000250: c8d1 7634 588f 2235 1e11 2e34 dbeb ea33
00000260: 3866 2535 008e 0634 c35a 8734 8a81 2835
00000270: 7746 e533 ca55 e034 211c 0c35 1dbc 9933
00000280: e3ec 0635 9663 c734 8b15 e733 3a14 4035
00000290: 26b7 e434 0697 6c34 33c1 2335 293a 1035
000002a0: 4881 9634 7fca fb34 5075 0335 e95a 9634
000002b0: 9ce0 f834 f27f 2535 b71e 4f34 61f4 bb34
000002c0: a9e4 8535 52c9 5c34 f24f 8434 f8dc 9335
000002d0: b8b5 1334 e10f bd34 be33 7b35 c9b7 ef33
000002e0: 04f3 1934 396d 5e35 7b7b 0334 2c77 0534
000002f0: 3ae5 7535 8e1d a133 ded2 4934 6b8f a135
00000300: ce15 ce33 e2b4 8034 d88f 9735 ff1f dc33
00000310: 121a eb33 12eb 4135 710d 1c34 44bd 2534
00000320: f340 0535 5ebc f333 10a9 5434 f3dd 1035
00000330: bb5c 0534 b95c 7134 fd0f 2035 bcd4 3834
00000340: b4af 8a34 2f39 1935 fcb5 3634 b4ce a034
00000350: 0f78 0335 52e7 2a34 b90c bb34 883a 0035
00000360: 0c9c 5034 a1da f834 a6ce 5535 8b51 a534
00000370: f20b dc34 f7c3 6635 371e 5f34 b7fd 7234
00000380: dc2a 4a35 85d0 da33 fc1a 7134 039d 1735
00000390: a803 8833 1416 1f34 aa58 0135 1062 e533
000003a0: 03b6 2734 3113 0a35 c014 3634 c702 6634
000003b0: a5f2 ac34 ff71 8434 ef02 8334 51d8 c834
000003c0: 6767 ef34 0150 aa34 6a96 4635 3806 0835
000003d0: 1e6a 9c34 586b 8c35 ded5 5a34 6141 5234
000003e0: 2017 7735 885c 8433 9238 1635 f7ec 0d35
000003f0: 5d58 1034 40c2 7f35 4a87 f134 8831 0434

exp_avg f4 [64]
-1.1931603e-09 1.6625469e-08 3.232903e-09 1.609207e-08 4.7040125e-11 1.0538738e-08 -1.183751e-11 -5.73412e-09
5.4846865e-09 -2.1865022e-08 -5.9383374e-09 -1.8538616e-08 -5.2258975e-09 -4.8026833e-13 2.092979e-08 -1.4446712e-11
-1.8861167e-10 -1.7300296e-08 1.09526485e-11 -8.891647e-10 -1.5484614e-09 -1.3786858e-10 1.4546248e-10 -3.8411474e-10
3.6726727e-10 -3.105145e-11 7.3030657e-09 1.3992062e-10 5.5096976e-11 -2.347623e-08 1.9606465e-10 -1.3083084e-08
1.4935046e-10 1.7197214e-08 -1.6484005e-08 -7.606888e-09 -5.514359e-09 -1.6447721e-08 -2.5710707e-09 -8.618414e-10
9.83861e-12 -2.3083233e-09 -1.2321078e-08 -3.7374195e-10 -5.829013e-09 -2.8282565e-10 1.0636576e-11 -8.62103e-09
6.7925496e-09 5.142726e-09 -7.4425395e-09 -2.0128695e-10 1.4123203e-08 5.5173754e-09 -2.5477362e-09 -1.0759481e-08
-3.105454e-09 -1.0019831e-08 -5.930643e-09 -3.145416e-09 1.0138376e-08 -9.911117e-10 -3.7531298e-10 -3.289968e-11
00000000: 99fc a3b0 cbcf 8e32 d529 5e31 d63a 8a32
00000010: 79e2 4e2e dc0d 3532 683f 50ad da05 c5b1
00000020: d073 bc31 b1d1 bbb2 2b0a ccb1 d93e 9fb2
00000030: 7b8f b3b1 fb2e 07ab 18c9 b332 3526 7ead
00000040: 7761 4faf c19b 94b2 58ae 402d 6769 74b0
00000050: a4d1 d4b0 8e96 17af 0cf0 1f2f 582b d3af
00000060: 46e8 c92f d390 08ae 72ee fa31 27d8 192f
00000070: ae51 722e c7a8 c9b2 4b93 572f 03c4 60b2
00000080: 6b36 242f 13b9 9332 b698 8db2 72af 02b2
00000090: d178 bdb1 ec48 8db2 c1ae 30b1 b2e6 6cb0
000000a0: 2915 2d2d 74a0 1eb1 adac 53b2 8177 cdaf
000000b0: 8a48 c8b1 2c7c 9baf e11e 3b2d b11b 14b2
000000c0: e663 e931 e5b3 b031 45b9 ffb1 3d51 5daf
000000d0: 81a2 7232 5993 bd31 4014 2fb1 b3d8 38b2
000000e0: b967 55b1 af23 2cb2 7dc6 cbb1 be26 58b1
000000f0: 0d2d 2e32 a537 88b0 9b54 ceaf bfb1 10ae

exp_avg_sq f4 [64]
1.6703139e-17 1.09487466e-16 2.7930627e-17 1.0589897e-16 9.510889e-18 6.949117e-17 4.2436614e-19 4.1531504e-17
4.013571e-17 1.4844702e-16 4.2662098e-17 1.2324446e-16 3.8741325e-17 8.658079e-22 1.4119236e-16 9.478107e-20
1.183476e-18 1.1422789e-16 1.34767836e-20 1.4957634e-17 1.8760786e-17 1.0062518e-17 7.711506e-18 3.8940905e-18
5.0591123e-18 4.809502e-19 5.039944e-17 9.65456e-19 2.3605447e-19 1.6132415e-16 6.973585e-18 8.552276e-17
7.7484175e-18 1.1351676e-16 1.08501857e-16 5.207316e-17 4.0225624e-17 1.0823849e-16 2.4352146e-17 1.4786027e-17
1.6543486e-19 2.2991872e-17 8.064591e-17 3.825078e-18 4.200197e-17 1.1168977e-17 3.807247e-19 5.800332e-17
4.7416666e-17 3.806423e-17 5.1086443e-17 1.3569244e-18 9.234141e-17 4.0329647e-17 2.4289336e-17 7.073325e-17
2.7313353e-17 6.6268437e-17 4.2641657e-17 2.7463354e-17 6.706598e-17 1.5612152e-17 3.4424137e-18 1.4818095e-19
00000000: 2c0f 9a23 fe75 fc24 aace 0024 b82f f424
00000010: e771 2f23 593c a024 6680 fa20 bf87 3f24
00000020: e217 3924 d425 2b25 84be 4424 5817 0e25
00000030: afa9 3224 52d6 821c a1c8 2225 a4cb df1f
00000040: 76a6 ae21 1fb2 0325 ba91 7e1e b7f5 8923
00000050: a709 ad23 e69e 3923 8f40 0e23 a5aa 8f22
00000060: f7a5 ba22 92f3 0d21 286d 6824 e579 8e21
00000070: 8b57 8b20 7cfe 3925 d3a3 0023 ba33 c524
00000080: deee 0e23 3ce0 0225 3130 fa24 2325 7024
00000090: 0982 3924 ba94 f924 e19b e023 8560 8823
000000a0: 9e4f 4320 0610 d423 f1f4 b924 d71e 8d22
000000b0: 2db3 4124 0108 4e23 7dbd e020 1ebf 8524
000000c0: b8ab 5a24 508a 2f24 3a98 6b24 283f c821
000000d0: bfec d424 d8fc 3924 9307 e023 8b19 a324
000000e0: d5eb fb23 fbcd 9824 62a6 4424 034e fd23
000000f0: c4a4 9a24 27ff 8f23 5b01 7e22 f2f0 2e20

exp_avg f4 [64]
-0.0012311464 -0.00031997188 2.9952653e-05 -0.0012309578 -0.0008394162 -0.0013993445 -0.0008371286 -0.0023162344
-0.0006726028 -0.00090696826 -0.00011463746 -5.7761587e-05 0.00067215145 -0.0013072806 -0.00023975951 0.000869168
-0.0010203923 -0.0014766552 -0.00063135335 -0.0013539593 -0.00051708106 -0.0010747287 -0.0024109893 -0.00033451174
-0.0002380156 -7.8472185e-05 -0.0012246417 0.00021188834 0.00018895845 -0.0008045014 0.00013780512 -0.00020038357
-0.0007634112 -0.0009887527 -0.0012864817 -6.622613e-05 -0.0026608252 -0.0019409227 0.0001231352 -0.0006986102
-0.0015951191 -0.0040718117 -0.003393592 -0.001204938 -0.00094300666 -2.0440855e-05 -0.00093761657 -0.00067683595
9.286832e-05 -0.009398519 -0.0009768505 -0.0011140249 -0.0025768853 -0.00013252521 -0.0032002192 0.0003147343
-0.0024043513 -0.0024542278 -0.0008417782 -0.0007994354 -0.00068517256 -0.00094644784 -0.00071927626 -0.004243593
00000000: 6b5e a1ba e6c1 a7b9 d542 fb37 1758 a1ba
00000010: 450c 5cba 366a b7ba c072 5bba f7cb 17bb
00000020: 9c51 30ba 9cc1 6dba 8569 f0b8 0845 72b8
00000030: 5233 303a 0f59 abba f467 7bb9 e1d8 633a
00000040: afbe 85ba 548c c1ba 6881 25ba 5677 b1ba
00000050: b98c 07ba e9dd 8cba b001 1ebb 6861 afb9
00000060: d393 79b9 6f91 a4b8 2884 a0ba 582e 5e39
00000070: 2623 4639 2de5 52ba c87f 1039 0e1e 52b9
00000080: a91f 48ba 0999 81ba 2a9f a8ba e2e2 8ab8
00000090: 3d61 2ebb 8f66 feba db1d 0139 f022 37ba
000000a0: 5113 d1ba d56c 85bb 0767 5ebb 03ef 9dba
000000b0: 1b34 77ba 6778 abb7 62ca 75ba b16d 31ba
000000c0: 4dc2 c238 3ffc 19bc aa09 80ba 7904 92ba
000000d0: f6e0 28bb 77f6 0ab9 c5ba 51bb ec02 a539
000000e0: 5292 1dbb 1cd7 20bb c7aa 5cba 3491 51ba
000000f0: 279d 33ba 0a1b 78ba d08d 3cba d70d 8bbb

exp_avg_sq f4 [64]
8.2265825e-07 2.94732e-07 2.8108132e-06 1.0028529e-06 1.9231031e-06 6.4042706e-07 4.008105e-07 1.5710178e-06
5.3579254e-07 3.1017174e-07 1.0713455e-06 1.0362207e-07 2.9569313e-07 5.1927583e-07 1.7332847e-07 7.5665463e-07
1.9337745e-06 1.7687044e-06 2.8980895e-07 2.1483709e-07 8.509464e-07 6.213873e-07 1.5239921e-06 7.9836923e-07
8.1755495e-08 2.6746957e-07 7.02827e-07 9.1549265e-07 1.1544946e-06 1.06107215e-07 5.895426e-07 2.0329021e-07
4.6899774e-07 1.9291534e-07 1.0804571e-06 1.523303e-07 9.57811e-07 6.941955e-07 1.6778154e-07 4.2088905e-07
2.8403002e-07 4.4636035e-06 5.076354e-07 6.902841e-07 5.403776e-07 6.882216e-07 1.0950342e-07 6.1909594e-07
4.1576035e-07 4.994677e-06 1.0460716e-06 2.6534357e-07 1.1332482e-06 2.0074401e-07 1.2006011e-06 4.1890303e-07
1.6685626e-06 4.742061e-07 2.0935138e-07 1.658889e-07 1.0415969e-06 3.9448323e-06 1.4388147e-06 3.1908085e-06
00000000: a5d4 5c35 a83b 9e34 67a1 3c36 c399 8635
00000010: a90e 0136 d0e9 2b35 fa2e d734 c3db d235
00000020: 62d3 0f35 ae85 a634 27cb 8f35 d686 de33
00000030: c1bf 9e34 5d64 0b35 2b1c 3a34 e91c 4b35
00000040: fec5 0136 3864 ed35 0a97 9b34 f8ad 6634
00000050: 976c 6435 69cd 2635 f88b cc35 844f 5635
00000060: 8f91 af33 bd98 8f34 e7a9 3c35 2dc0 7535
00000070: 22f4 9a35 0fdd e333 0f41 1e35 fd47 5a34
00000080: 8fca fb34 2a24 4f34 3904 9135 3c90 2334
00000090: 238e 8035 c058 3a35 7027 3434 8df6 e134
000000a0: ca7c 9834 10c6 9536 7044 0835 f64b 3935
000000b0: 770e 1135 3abe 3835 2428 eb33 f32f 2635
000000c0: ab35 df34 f397 a736 bf66 8c35 8b74 8e34
000000d0: 1d1a 9835 188c 5734 5724 a135 98e5 e034
000000e0: 60f3 df35 6496 fe34 12ca 6034 321f 3234
000000f0: ffcc 8b35 da5d 8436 4c1d c135 ac21 5636
