training/checkpoints/fold_0/best-checkpoint.ckpt (torch, 358546 bytes, 26 tensors)

conv1.0.weight f4 [64, 60, 3]
0.031336743 -0.03987239 -0.032783214 0.009221849 -0.034965843 -0.0663245 0.01792786 -0.06651077
0.03868532 -0.03434357 -0.003640388 -0.03244342 -0.013837842 -0.04635886 -0.049439643 -0.07095449
0.047108617 -0.02919769 -0.038864564 -0.040932078 0.01125929 -0.014158185 0.066413835 -0.0048952587
-0.03134459 -0.0621389 -0.009901163 0.0592617 -0.028710786 -0.0064557437 -0.005070025 0.016613482
0.07011901 0.055378728 0.02236375 0.057639513 -0.04339521 -0.06537393 0.04652826 -0.058853142
-0.004386445 0.0052355225 0.0073811333 -0.04995987 -0.00771728 -0.008727258 -0.04924343 -0.033197347
-0.020614993 0.015012035 0.026610183 0.0067243236 -0.08319272 -0.023078738 0.06854121 0.04174268
0.033908833 -0.018189562 -0.047132935 0.0020071098 0.03349036 -0.037986398 -0.004657517 -0.088090144
0.042920105 -0.013525657 -0.042006474 -0.07802343 -0.0025917755 0.027069358 0.039730728 -0.014615286
0.058744404 0.02715762 -0.07611255 0.041380417 0.0025952219 0.045873538 0.011391428 0.05003844
-4.890896e-06 -0.0046416814 0.0068611032 -0.09217121 0.026255572 -0.03895701 0.024724439 -0.020130305
-0.0448024 0.0146969315 -0.046878085 -0.08306161 -0.035798863 0.039621845 0.039615914 0.0012509979
0.021196272 0.017235741 0.018471744 -0.07781031 0.0010254331 -0.026800685 -0.021106742 -0.047223628
0.05394045 -0.056484036 0.040892072 0.014007571 -0.06844812 0.0040070517 0.03897664 0.028623722
0.035675783 -0.016570888 -0.0057001775 -0.04618494 -0.0076186894 -0.0012609208 -0.07632047 -0.046204776
0.0107469335 -0.08326096 0.004780993 -0.029031832 0.034714263 0.011538485 -0.033530843 -0.079470694
0.032943126 -0.03792713 0.029135775 -0.040007558 0.004732005 0.032157917 -0.06321556 -0.049857628
0.051961828 0.033909936 0.016187005 -0.048453968 -0.05786341 -0.014221136 0.03634861 -0.02770284
0.01930432 -0.08341336 0.015435423 -0.042425722 0.01937032 0.0045625125 -0.07988534 0.064271465
-0.011849049 -0.009926202 0.015625207 0.04346203 -0.007707165 0.047098134 -0.041239385 0.033859268
0.052645944 -0.06265979 -0.064416334 0.0429608 0.02145236 -0.054117296 -0.030769097 -0.01117456
0.020635985 -0.04876335 0.06462313 -0.011986137 -0.078244954 -0.05810332 0.05335398 -0.028788662
0.051667262 0.0986666 -0.018439017 -0.047897074 0.03205028 -0.020610992 0.027170083 -0.031550907
-0.09698319 0.04544282 -0.018149942 -0.034536596 0.043939594 -0.04166013 -0.016343853 0.049430095
-0.052656677 -0.024437672 0.0591999 0.024037335 -0.06355363 0.04770031 0.050702296 0.040434495
-0.018131396 0.01661975 0.02849595 0.0031972958 -0.0030848996 -0.053303014 -0.035615448 -0.009948823
0.017527083 -0.030248744 0.020296408 -0.061806817 0.07694699 -0.019471845 -0.046869744 -0.014284169
0.016830621 -0.0095327925 0.052875403 -0.075210206 0.036794856 0.0043215477 0.055317458 -0.0034546934
0.09078939 -0.022440514 -0.009220227 0.01665542 -0.03948497 -0.06034843 0.05101248 -0.02874315
-0.04595929 0.048198044 -0.031688906 0.038369283 -0.039972436 -0.05383714 -0.05240704 -0.055090267
-0.037252594 0.024062792 0.03612626 -0.07671668 0.02264779 0.03749224 0.0045827576 0.045463257
0.03728131 0.046837695 0.027737342 0.05193749 -0.05789604 0.013184674 0.055419043 0.001147571
00000000: f55a 003d 3b51 23bd b147 06bd 3d17 173c
00000010: 5838 0fbd 24d5 87bd 73dd 923c cc36 88bd
00000020: 8074 1e3d d8ab 0cbd 9393 6ebb 64e3 04bd
00000030: 1eb8 62bc cae2 3dbd 3981 4abd 9650 91bd
00000040: f7f4 403d fe2f efbc 7330 1fbd 65a8 27bd
00000050: e378 383c bbf7 67bc fa03 883d 6868 a0bb
00000060: 2f63 00bd 5c85 7ebd 7d38 22bc 65bc 723d
00000070: e232 ebbc b48a d3bb 7422 a6bb ff18 883c
00000080: 8e9a 8f3d ced4 623d 2f34 b73c 6917 6c3d
00000090: 2dbf 31bd c4e2 85bd 6b94 3e3d fe0f 71bd
000000a0: 2bbc 8fbb bf8e ab3b 6fdd f13b b8a2 4cbd
000000b0: 3de1 fcbb c6fc 0ebc 7bb3 49bd f1f9 07bd
000000c0: c6e0 a8bc 0af5 753c 99fd d93c b757 dc3b
000000d0: f260 aabd 9f0f bdbc 555f 8c3d 5ffa 2a3d
000000e0: fde3 0a3d 4702 95bc 770e 41bd b789 033b
000000f0: 302d 093d a097 1bbd 169e 98bb 9b68 b4bd
00000100: fecc 2f3d b89a 5dbc fb0e 2cbd c0ca 9fbd
00000110: c7da 29bb 8fc0 dd3c b0bc 223d f474 6fbc
00000120: f99d 703d a879 de3c e6e0 9bbd 837e 293d
00000130: 9914 2a3b e4e5 3b3d 1da3 3a3c 1bf5 4c3d
00000140: 7a1c a4b6 3f19 98bb 1bd3 e03b 42c4 bcbd
00000150: ed15 d73c 6391 1fbd e88a ca3c 4fe8 a4bc
00000160: b982 37bd 66cb 703c 3c03 40bd 351c aabd
00000170: d4a1 12bd 844a 223d 4c44 223d 86f8 a33a
00000180: cea3 ad3c f831 8d3c 0e52 973c 035b 9fbd
00000190: d367 863a 1c8d dbbc 0ce8 acbc 906d 41bd
000001a0: a9f0 5c3d ce5b 67bd 727e 273d 0380 653c
000001b0: 872e 8cbd 964d 833b f8a5 1f3d 4c7c ea3c
000001c0: c520 123d acbf 87bc 8ec8 babb 6b2c 3dbd
000001d0: 33a6 f9bb 7b45 a5ba e84d 9cbd 3841 3dbd
000001e0: e813 303c b984 aabd e0a9 9c3b 2ad4 edbc
000001f0: 8b30 0e3d ea0b 3d3c a357 09bd 88c1 a2bd
00000200: 5fef 063d 7a59 1bbd 26ae ee3c f7de 23bd
00000210: ef0e 9b3b 05b8 033d 2977 81bd 8337 4cbd
00000220: edd5 543d 25e5 0a3d 9c9a 843c ab77 46bd
00000230: 2f02 6dbd c5ff 68bc 48e2 143d 11f1 e2bc
00000240: 1824 9e3c a0d4 aabd dbe4 7c3c 98c6 2dbd
00000250: 81ae 9e3c 2181 953b ed9a a3bd c2a0 833d
00000260: 8322 42bc 82a1 22bc 6f00 803c 3e05 323d
00000270: 638c fcbb f9e9 403d a1ea 28bd 04b0 0a3d
00000280: 46a3 573d c753 80bd b6ec 83bd aaf7 2f3d
00000290: dcbc af3c 19aa 5dbd 790f fcbc 8015 37bc
000002a0: cc0c a93c 14bc 47bd 2259 843d 8161 44bc
000002b0: e43e a0bd bffd 6dbd b489 5a3d 33d6 ebbc
000002c0: 0da1 533d b711 ca3d 6c0d 97bc b92f 44bd
000002d0: 2847 033d 62d8 a8bc cb93 de3c 863b 01bd
000002e0: 1f9f c6bd 4022 3a3d 30af 94bc 3f76 0dbd
000002f0: 01fa 333d d0a3 2abd 8be3 85bc 3677 4a3d
00000300: 87ae 57bd 8331 c8bc 987b 723d f2e9 c43c
00000310: 6828 82bd 6661 433d 36ad 4f3d a49e 253d
00000320: 4b88 94bc 2426 883c 5770 e93c b989 513b
00000330: 072c 4abb 4354 5abd 81e1 11bd 6300 23bc
00000340: f594 8f3c 37cc f7bc a744 a63c 2529 7dbd
00000350: 6296 9d3d 6b83 9fbc 7dfa 3fbd 2608 6abc
00000360: 5fe0 893c 6e2f 1cbc e193 583d cf07 9abd
00000370: 34b6 163d c59b 8d3b 8f94 623d 2368 62bb
00000380: caef b93d 2bd5 b7bc 6f10 17bc f370 883c
00000390: feba 21bd ea2f 77bd 76f2 503d c176 ebbc
000003a0: cf3f 3cbd 506b 453d 3acc 01bd 1c29 1d3d
000003b0: 23ba 23bd 5584 5cbd c4a8 56bd 55a6 61bd
000003c0: 2d96 18bd 551f c53c 21f9 133d a21d 9dbd
000003d0: dc87 b93c 7791 193d f52a 963b ae37 3a3d
000003e0: 49b4 183d e2d8 3f3d 6c39 e33c 68bc 543d
000003f0: 6624 6dbd 8804 583c 14ff 623d 186a 963a

conv1.0.bias f4 [64]
-0.00015129427 -0.00014791316 1.8689101e-05 -0.0002298177 5.7866422e-05 -6.0619568e-05 0.005269353 0.0077996906
-1.6757422e-05 -0.011510138 0.0111300275 -0.00024060691 0.00013543309 -0.009531273 5.31149e-05 3.9509505e-06
0.0048911986 -0.0069681937 2.6801752e-06 -0.003136555 -0.0001253291 9.473898e-05 -4.6593104e-06 0.0056145783
-0.0003759944 -1.3526212e-05 -5.2609354e-05 0.00022657176 0.0042277146 0.007931595 -0.0028562823 -0.00089131045
-0.010778229 -0.010136877 -1.1034653e-05 -4.8782582e-05 0.0002453614 -0.0021249352 0.00011485152 7.171686e-06
0.00018300134 0.00024921756 -0.0008752695 2.665803e-06 0.00020981515 -5.5620672e-05 0.005644136 -0.0001766681
-0.00767685 -0.0035517744 -0.0104737 -0.004115146 6.351551e-05 0.003668186 0.0032907096 -0.005263052
0.0041485154 0.00020219423 1.574177e-06 -1.0979484e-06 3.3409729e-06 5.3875698e-05 0.00023236344 -0.0010385076
00000000: bfa4 1eb9 2319 1bb9 8ac6 9c37 38fb 70b9
00000010: 99b5 7238 c441 7eb8 89aa ac3b 8c94 ff3b
00000020: 4a92 8cb7 0595 3cbc b85a 363c 6d4b 7cb9
00000030: 0b03 0e39 0e29 1cbc b1c7 5e38 6892 8436
00000040: 5946 a03b 7255 e4bb 0fdd 3336 a98e 4dbb
00000050: c66a 03b9 9aae c638 2c57 9cb6 7ffa b73b
00000060: 1d21 c5b9 a3ee 62b7 dda8 5cb8 e593 6d39
00000070: a488 8a3b 85f3 013c 7730 3bbb d5a6 69ba
00000080: 2b97 30bc 2515 26bc 7921 39b7 e69b 4cb8
00000090: daa3 8039 7f42 0bbb 71dc f038 50a4 f036
000000a0: 0ce4 3f39 6aa9 8239 5872 65ba 26e6 3236
000000b0: d301 5c39 3e4a 69b8 72f2 b83b fb3f 39b9
000000c0: 168e fbbb e3c4 68bb e299 2bbc 59d8 86bb
000000d0: a133 8538 f365 703b f2a8 573b ae75 acbb
000000e0: 45f0 873b 1a04 5439 4f48 d335 385d 93b5
000000f0: 7a35 6036 97f8 6138 96a6 7339 881e 88ba

conv1.1.weight f4 [64]
1.0333114 1.0318441 1.0251544 1.0243065 1.0230862 1.0553448 1.0181373 1.0550239
1.0477331 1.0266432 1.0526909 1.0222702 1.0589515 0.995776 1.0392919 1.029943
1.0318904 1.0272678 0.9946601 1.0241293 1.0079631 1.0418664 1.0006717 1.0274678
1.0253115 1.0527775 1.0717496 1.0257214 1.0378879 1.0186576 1.0375999 1.0452679
1.0265636 1.0348091 1.0289538 1.0131301 1.0054351 1.0319457 1.0151656 1.0248609
1.0443505 1.0333551 1.0212218 1.0142008 0.99809885 1.07728 1.0550538 0.9981979
1.0464002 1.0232259 1.0564933 1.0072441 1.0265208 1.0573136 1.0380145 1.0098544
1.0196779 1.0038505 1.0095824 1.0091174 0.9998991 1.0013472 1.028944 1.0140117
00000000: 8c43 843f 7813 843f 4238 833f 7a1c 833f
00000010: 7df4 823f 8a15 873f 5352 823f 060b 873f
00000020: 1e1c 863f 0b69 833f 93be 863f c0d9 823f
00000030: b98b 873f 2deb 7e3f 8407 853f 2cd5 833f
00000040: fc14 843f 837d 833f 0ba2 7e3f ab16 833f
00000050: ef04 813f e15b 853f 0316 803f 1184 833f
00000060: 683d 833f 6ac1 863f 172f 893f d74a 833f
00000070: 83d9 843f 5f63 823f 13d0 843f 57cb 853f
00000080: 7066 833f a074 843f c2b4 833f 3fae 813f
00000090: 19b2 803f cc16 843f f2f0 813f a42e 833f
000000a0: 47ad 853f fb44 843f 65b7 823f 55d1 813f
000000b0: 6883 7f3f 50e4 893f 010c 873f e689 7f3f
000000c0: 71f0 853f 11f9 823f 2c3b 873f 60ed 803f
000000d0: 0965 833f 0d56 873f a9dd 843f e942 813f
000000e0: ce84 823f 2c7e 803f ff39 813f c22a 813f
000000f0: 63f9 7f3f 252c 803f 70b4 833f 23cb 813f

conv1.1.bias f4 [64]
-0.060475383 -0.041944664 -0.07050273 -0.06906892 -0.082617596 -0.03715269 -0.07182286 -0.09259243
-0.057505053 -0.054554254 -0.052541584 -0.07505697 -0.06591696 -0.09052569 -0.068523295 -0.07074692
-0.078296915 -0.074247636 -0.0735425 -0.08467162 -0.053146735 0.07230287 0.07075436 -0.07466282
-0.091150336 0.09552453 -0.096510574 -0.026248777 -0.06361169 0.013313886 -0.08231767 -0.07440531
-0.06393295 -0.06164372 -0.0572103 -0.07919109 -0.055518724 -0.07095442 -0.008641791 -0.05331139
-0.06828699 -0.06911347 -0.047831416 -0.07395234 -0.057851214 -0.07175627 -0.056033727 -0.0916117
-0.046627354 -0.061995074 0.08420839 -0.058718465 -0.08439665 -0.024582107 0.06328209 -0.057469144
-0.06468442 -0.07230014 -0.07266676 -0.029533423 -0.06679014 -0.085354984 -0.03930269 -0.0327323
00000000: 09b5 77bd 2bce 2bbd bc63 90bd 0274 8dbd
00000010: 6a33 a9bd 6b2d 18bd dd17 93bd 1aa1 bdbd
00000020: 6b8a 6bbd 4874 5fbd d835 57bd 78b7 99bd
00000030: 79ff 86bd 8865 b9bd f155 8cbd c3e3 90bd
00000040: 225a a0bd 250f 98bd 739d 96bd 5068 adbd
00000050: 64b0 59bd 8713 943d a9e7 903d d2e8 98bd
00000060: 07ad babd 5da2 c33d 56a7 c5bd ad07 d7bc
00000070: d946 82bd 7c22 5a3c 2b96 a8bd d061 98bd
00000080: 47ef 82bd 207e 7cbd 5955 6abd f02e a2bd
00000090: 9a67 63bd 8d50 91bd 4c96 0dbc 0b5d 5abd
000000a0: 0dda 8bbd 5d8b 8dbd e0ea 43bd 5374 97bd
000000b0: 65f5 6cbd f4f4 92bd 9f83 65bd ea9e bbbd
000000c0: 53fc 3ebd 8cee 7dbd 7375 ac3d c682 70bd
000000d0: 27d8 acbd 6a60 c9bc 0a9a 813d c464 6bbd
000000e0: 4479 84bd 1912 94bd 4fd2 94bd 14f0 f1bc
000000f0: 45c9 88bd 98ce aebd dcfb 20bd 4e12 06bd

conv1.1.running_mean f4 [64]
4.17297 0.58176005 3.755398 3.441805 2.1616616 1.6102213 4.566168 5.635396
3.0946348 2.2430477 2.7719934 3.7663243 2.8436887 5.761059 5.039778 3.327948
4.0514693 3.4158742 3.8782554 5.9061213 -1.366458 -3.0918603 -4.6578608 2.905283
5.387275 -4.65338 6.439481 1.7662451 3.9662955 -5.749808 4.1351013 2.9842029
3.8552637 3.2122016 0.3291817 3.3530183 0.33442777 4.9235926 -0.10641934 0.27396324
2.536797 4.510958 1.5730588 4.0990186 2.275458 2.3668747 2.8292046 3.320809
0.07511777 0.6641003 -4.050924 1.2379624 4.1435394 0.4886715 -3.4618735 1.9071841
1.3962843 1.8474243 3.938846 2.3114543 0.7672297 2.2809794 -0.059391826 2.8642251
00000000: f888 8540 3aee 143f 7158 7040 8846 5c40
00000010: aa58 0a40 bb1b ce3f 0c1e 9240 2a55 b440
00000020: 7f0e 4640 188e 0f40 5768 3140 750b 7140
00000030: fffe 3540 985a b840 dd45 a140 1afd 5440
00000040: a3a5 8140 af9d 5a40 5635 7840 f2fe bc40
00000050: 19e8 aebf 0ae1 45c0 320d 95c0 28f0 3940
00000060: 8f64 ac40 7de8 94c0 3a10 ce40 5214 e23f
00000070: c9d7 7d40 6dfe b7c0 c052 8440 2efd 3e40
00000080: a4bc 7640 b694 4d40 818a a83e da97 5640
00000090: 1e3a ab3e 128e 9d40 62f2 d9bd e944 8c3e
000000a0: e25a 2240 c559 9040 fe59 c93f 292b 8340
000000b0: 1ba1 1140 e07a 1740 b011 3540 2288 5440
000000c0: 58d7 993d 7a02 2a3f 2ba1 81c0 8d75 9e3f
000000d0: e097 8440 2733 fa3e 568f 5dc0 9c1e f43f
000000e0: 72b9 b23f 6678 ec3f 0e16 7c40 deee 1340
000000f0: 2a69 443f 91fb 1140 d844 73bd 774f 3740

conv1.1.running_var f4 [64]
914.4616 896.0441 742.1334 1193.4568 796.6868 343.77054 3470.982 413.3665
379.33038 758.9292 389.6222 1871.936 920.39545 558.2497 1351.6697 1624.1531
1327.1843 2378.7974 338.63116 1546.2938 2763.7751 219.94705 1475.0817 1570.7839
538.76154 261.45325 332.19653 922.485 619.3628 4206.114 240.70274 313.0149
890.1232 380.32904 317.874 605.8157 1640.0155 2103.878 292.4519 154.52301
260.09256 318.4191 1359.1875 2662.1765 1434.7235 251.17151 229.66455 741.3849
449.8301 250.92464 256.28067 347.27103 699.85925 285.17307 1471.3544 1487.0219
328.1201 2307.3813 454.3367 1628.6497 2749.4514 1418.168 253.34769 756.9223
00000000: 8b9d 6444 d302 6044 8a88 3944 9e2e 9544
00000010: f52b 4744 a1e2 ab43 b6ef 5845 e9ae ce43
00000020: 4aaa bd43 78bb 3d44 a4cf c243 f4fd e944
00000030: 4f19 6644 fb8f 0b44 6ef5 a844 e604 cb44
00000040: e6e5 a544 c2ac 1445 ca50 a943 6749 c144
00000050: 67bc 2c45 72f2 5b43 9d62 b844 1659 c444
00000060: bdb0 0644 04ba 8243 2819 a643 0a9f 6644
00000070: 38d7 1a44 e970 8345 e7b3 7043 e881 9c43
00000080: e387 5e44 1e2a be43 dfef 9e43 3474 1744
00000090: 7f00 cd44 0c7e 0345 d839 9243 e485 1a43
000000a0: d90b 8243 a535 9f43 00e6 a944 d362 2645
000000b0: 2757 b344 e82b 7b43 20aa 6543 a258 3944
000000c0: 41ea e043 b5ec 7a43 ed23 8043 b1a2 ad43
000000d0: fef6 2e44 2796 8e43 57eb b744 b3e0 b944
000000e0: 5f0f a443 1a36 1045 192b e343 ca94 cb44
000000f0: 39d7 2b45 6045 b144 0259 7d43 073b 3d44

fc1.0.weight f4 [128, 128]
-0.045738883 -0.052653052 -0.061737742 0.06066013 -0.13608016 -0.0019254684 0.06374002 -0.027157748
-0.090511 0.010787976 -0.015269204 -0.04772099 -0.0552922 0.050295122 0.029376268 -0.07544681
0.044551335 -0.10497684 -0.0654507 -0.07667044 -0.055518754 -0.030735128 0.024583515 -0.1177713
-0.015344473 0.016736431 -0.0105203 0.042131376 -0.12210749 -0.08923304 -0.052125834 0.041265853
0.02242691 -0.09420778 -0.027335813 -0.081966534 -0.0152535895 -0.097112104 -0.06449475 -0.04005513
0.039392643 0.017888527 -0.0177508 0.03543662 0.0477608 -0.021817539 -0.027532145 0.0026316056
-0.12867354 -0.012795471 0.13919166 0.08513273 -0.11954249 0.012436102 0.05285676 -0.024881082
0.0069662402 -0.07750031 0.06200065 0.08082179 -0.08345584 0.03344769 0.050721474 -0.035891004
0.026339872 -0.04815101 -0.07128983 0.04735621 -0.013432846 -0.099672265 -0.035907026 -0.0065242643
-0.021123117 -0.04642776 0.0030682299 -0.03437236 0.02208423 0.024834894 -0.02340503 -0.047943573
0.053378128 -0.013862303 0.002300997 -0.10666489 0.015093643 -0.048711125 0.04416612 0.04670366
-0.07575349 0.053107277 0.0006914624 -0.05413092 -0.006701922 0.011349955 -0.01373368 -0.1117042
0.0038134502 -0.008394992 0.03532493 0.013997811 0.027967857 0.09213008 -0.08462108 0.032856047
-0.14010596 -0.09078667 -0.049414657 -0.016737178 0.041196477 0.018915879 0.014725576 -0.05238239
0.010360685 0.015156107 0.014252498 0.025196943 -0.005593407 -0.05902807 -0.0016650811 -0.022963125
0.008449512 -0.106515296 0.021748018 -0.10605948 0.027074592 -0.0037713752 0.0454797 0.007967671
0.07777299 0.020016082 -0.059165604 0.08554853 0.036149222 0.054563526 0.034021918 0.09607739
0.07803654 0.054525234 -0.047994573 -0.0068555274 0.07614001 0.09698495 -0.014807891 0.077283025
-0.073871106 0.0077059264 0.04213879 -0.06877644 -0.086531326 -0.06629718 0.04087018 -0.01958222
0.0036391087 0.099244684 -0.02614265 0.015237061 -0.051222466 0.08782251 0.058472827 -0.0375201
-0.07093901 -0.01093433 0.035576865 0.04884272 -0.013950418 -0.027793624 0.06867849 -0.028738528
0.029361524 -0.06132941 0.032532543 -0.038554862 -0.0812206 -0.06765717 -0.06316801 0.061438505
0.026041633 -0.0340647 -0.09233631 -0.048472296 0.017624034 0.033798054 0.002832431 0.0947088
0.058707893 -0.057438314 -0.019065816 0.041424166 0.03425852 0.04363442 0.034092113 -0.047586754
0.055651687 0.07103479 0.029635547 0.0856939 -0.0069413967 0.102405675 0.10064605 -0.036717363
0.06861615 -0.020217175 -0.014790787 0.035293207 0.013129917 -0.019242594 -0.03606603 0.032797582
0.08089864 -0.08036646 -0.01997756 -0.05924429 0.07987052 0.041894544 0.07995996 -0.024498107
-0.03920157 -0.04484114 -0.07135797 -0.042874772 -0.01591954 0.08658355 0.005971651 0.026865574
0.043405186 0.07091555 0.05454593 -0.05732098 -0.04558763 -0.08865967 0.08716516 0.010226143
-0.036683373 0.100696705 0.04779841 -0.012572431 -0.08703073 0.08879759 0.016841715 0.06466003
-0.019226734 0.049236294 -0.069079176 0.012510451 -0.037292268 0.013063654 0.022875272 0.0415256
-0.04283658 -0.04583149 0.0865639 0.09915137 -0.035716888 0.017099181 0.07214409 0.06272394
00000000: b258 3bbd baaa 57bd b7e0 7cbd c276 783d
00000010: 9958 0bbe 0060 fcba 218a 823d ed79 debc
00000020: d55d b9bd 0dc0 303c af2b 7abc 1677 43bd
00000030: 137a 62bd 4202 4e3d 80a6 f03c db83 9abd
00000040: 767b 363d 19fe d6bd 040b 86bd 6405 9dbd
00000050: a267 63bd 3cc8 fbbc 5e63 c93c 1432 f1bd
00000060: 6267 7bbc d71a 893c 565d 2cbc f391 2c3d
00000070: 7e13 fabd d0bf b6bd e681 55bd 6206 293d
00000080: a4b8 b73c 02f0 c0bd 5bef dfbc 12de a7bd
00000090: 31ea 79bc b6e2 c6bd d315 84bd d910 24bd
000000a0: 2e5a 213d f68a 923c 206a 91bc fd25 113d
000000b0: d4a0 433d b2ba b2bc 188b e1bc 0477 2c3b
000000c0: ffc2 03be 18a4 51bc 4288 0e3e 125a ae3d
000000d0: b1d2 f4bd cbc0 4b3c 5480 583d 69d3 cbbc
000000e0: 0f45 e43b 7cb8 9ebd 65f4 7d3d e585 a53d
000000f0: e5ea aabd 7200 093d 52c1 4f3d 7202 13bd
00000100: b7c6 d73c fe39 45bd 6700 92bd 96f8 413d
00000110: 7115 5cbc f920 ccbd 3f13 13bd 7fc9 d5bb
00000120: 630a adbc 092b 3ebd 5b14 493b 08ca 0cbd
00000130: fde9 b43c 8c72 cb3c e8bb bfbc 7b60 44bd
00000140: 06a3 5a3d b71e 63bc 53cc 163b 1f73 dabd
00000150: 544b 773c 5185 47bd 89e7 343d 564c 3f3d
00000160: a524 9bbd 0487 593d 4243 353a 62b8 5dbd
00000170: cc9b dbbb 29f5 393c 3b03 61bc 2cc5 e4bd
00000180: 14eb 793b 268b 09bc e0b0 103d 1357 653c
00000190: d91c e53c b2ae bc3d d14d adbd 1094 063d
000001a0: f077 0fbe 5dee b9bd 0667 4abd 681c 89bc
000001b0: a3bd 283d 79f5 9a3c 8b43 713c eb8e 56bd
000001c0: ddbf 293c 5251 783c 4f83 693c d269 ce3c
000001d0: e648 b7bb 6bc7 71bd da3e daba 2a1d bcbc
000001e0: d26f 0a3c b124 dabd e628 b23c b635 d9bd
000001f0: 89cb dd3c 2d29 77bb ec48 3a3d d68a 023c
00000200: 7247 9f3d c4f8 a33c a257 72bd 1134 af3d
00000210: 3511 143d 017e 5f3d 915a 0b3d 39c4 c43d
00000220: 9fd1 9f3d da55 5f3d f595 44bd 55a4 e0bb
00000230: 4bef 9b3d 0ca0 c63d cc9c 72bc 9046 9e3d
00000240: bc49 97bd ff81 fc3b b999 2c3d aada 8cbd
00000250: 5637 b1bd d1c6 87bd 7d67 273d e46a a0bc
00000260: 1d7e 6e3b cc40 cb3d 1c29 d6bc dea4 793c
00000270: a6ce 51bd 4adc b33d 3481 6f3d adae 19bd
00000280: 7948 91bd e725 33bc 0cb9 113d 4e0f 483d
00000290: 4b90 64bc 74af e3bc 4fa7 8c3d 106d ebbc
000002a0: 9487 f03c 8c34 7bbd d840 053d b4eb 1dbd
000002b0: fc56 a6bd d88f 8abd 3b5e 81bd f1a6 7b3d
000002c0: 4355 d53c 6d87 0bbd d21a bdbd e38a 46bd
000002d0: 4760 903c d46f 0a3d 4fa0 393b b0f6 c13d
000002e0: b077 703d 7044 6bbd ea2f 9cbc 63ac 293d
000002f0: a952 0c3d 01ba 323d 2ca4 0b3d 54ea 42bd
00000300: 06f3 633d b07a 913d 3fc6 f23c 4980 af3d
00000310: a874 e3bb 11ba d13d 841f ce3d f264 16bd
00000320: a086 8c3d 7d9e a5bc 0f55 72bc 9c8f 103d
00000330: dd1e 573c a5a2 9dbc f9b9 13bd c256 063d
00000340: 30ae a53d 2c97 a4bd fba7 a3bc 24aa 72bd
00000350: 2893 a33d 9d99 2b3d 0cc2 a33d 41b0 c8bc
00000360: d391 20bd 58ab 37bd 2124 92bd 759d 2fbd
00000370: b269 82bc b752 b13d d7ad c33b 3115 dc3c
00000380: a3c9 313d 2c3c 913d 8e6b 5f3d 67c9 6abd
00000390: 18ba 3abd 3393 b5bd a683 b23d 8d8b 273c
000003a0: 4e41 16bd 133a ce3d 44c8 433d 99fc 4dbc
000003b0: 2b3d b2bd 83db b53d a3f7 893c 7a6c 843d
000003c0: 6281 9dbc ffab 493d 6279 8dbd a2f8 4c3c
000003d0: c7bf 18bd f008 563c ec64 bb3c bf16 2a3d
000003e0: 6975 2fbd cdb9 3bbd 6a48 b13d e00f cb3d
000003f0: df4b 12bd 9513 8c3c 48c0 933d 6975 803d

fc1.0.bias f4 [128]
0.13849875 -0.031468976 -0.01667986 0.10438108 0.17410374 -0.03251267 0.014528199 -0.12227405
0.04317805 -0.08242824 0.019819515 0.14131594 0.11843994 -0.024292242 0.054654475 0.0058014635
-0.10172091 0.12892541 0.058530744 -0.004014743 -0.017621955 0.06429395 -0.055201862 -0.07204289
-0.033185493 -0.052266255 0.09164934 0.020028578 0.073410936 -0.105473384 0.06716941 -0.046690084
-0.10176101 0.018560179 0.10091482 -0.019209841 0.15674546 0.096886106 -0.15036753 0.07246987
-0.00265378 -0.12219426 0.07131266 0.115006626 -0.057122774 0.14509346 0.03843382 0.09486201
-0.03854093 -0.060005624 -0.042774916 -0.11668925 -0.012862571 0.13345477 -0.05086881 0.045408066
-0.08067525 0.103944935 -0.07848554 -0.06333778 -0.029510899 -0.020920262 0.021593224 0.07923136
-0.0035706135 0.027050506 0.09643678 -0.07504032 -0.03796181 -0.06659492 -0.04378181 -0.052020047
0.015221507 0.14304988 0.059219457 0.0010869063 0.031685147 0.11586105 -0.034958683 -0.06534474
-0.1299351 0.041415982 0.053983975 0.059925366 -0.13960466 -0.018578576 -0.04895395 -0.02700378
-0.06095942 0.0940164 -0.086728945 0.04323891 0.0181392 -0.036105264 0.16195971 -0.0060881944
0.068663836 -0.06675611 0.003025895 -0.10922624 0.009872611 -0.11630928 0.12761731 -0.076765545
0.108624704 0.018054161 0.08477969 -0.029783009 -0.050952855 0.09684793 0.07684956 0.01999407
-0.013947385 0.014055387 0.10100192 0.1203745 -0.05078171 -0.11153361 0.022429941 0.16761564
0.10701117 -0.0756265 -0.029793577 -0.010534297 0.018747931 0.08937024 -0.05917358 0.13042556
00000000: 9ed2 0d3e 9de5 00bd 34a4 88bc bfc5 d53d
00000010: 4048 323e 012c 05bd af07 6e3c d16a fabd
00000020: 78db 303d 23d0 a8bd 895c a23c 20b5 103e
00000030: a490 f23d 8600 c7bc 5fdd 5f3d 341a be3b
00000040: 0d53 d0bd 0605 043e efbd 6f3d 1b8e 83bb
00000050: eb5b 90bc 8cac 833d 591b 62bd 398b 93bd
00000060: 83ed 07bd 2415 56bd a6b2 bb3d f912 a43c
00000070: 7958 963d 6e02 d8bd 1e90 893d 1a3e 3fbd
00000080: 1468 d0bd 840b 983c 6eac ce3d f55d 9dbc
00000090: e281 203e 396c c63d f2f9 19be 156b 943d
000000a0: 0aeb 2dbb fc40 fabd 5f0c 923d 9888 eb3d
000000b0: 92f9 69bd 6193 143e c86c 1d3d 0347 c23d
000000c0: 18dd 1dbd 75c8 75bd c034 2fbd c6fa eebd
000000d0: 88bd 52bc 5ea8 083e d05b 50bd cffd 393d
000000e0: 1139 a5bd 15e1 d43d 07bd a0bd 3db7 81bd
000000f0: d7c0 f1bc f860 abbc 46e4 b03c 0d44 a23d
00000100: f400 6abb 0699 dd3c a680 c53d bdae 99bd
00000110: d87d 1bbd eb62 88bd 8e54 33bd f912 55bd
00000120: a163 793c ab7b 123e 1a90 723d 8676 8e3a
00000130: 49c8 013d 8f48 ed3d d630 0fbd 77d3 85bd
00000140: b50d 05be cea3 293d 4d1e 5d3d 4d74 753d
00000150: 86f4 0ebe 1932 98bc f083 48bd 0837 ddbc
00000160: 96b0 79bd ac8b c03d f29e b1bd 491b 313d
00000170: a998 943c 1de3 13bd c4d8 253e 7a7f c7bb
00000180: a09f 8c3d 6db7 88bd 184e 463b 02b2 dfbd
00000190: bbc0 213c 8f33 eebd 1dae 023e 4137 9dbd
000001a0: a176 de3d 52e6 933c f9a0 ad3d 7ffb f3bc
000001b0: f1b3 50bd 3558 c63d 4d63 9d3d 9bca a33c
000001c0: 9383 64bc 9148 663c 18da ce3d e886 f63d
000001d0: 7b00 50bd bc6b e4bd ffbe b73c 6fa3 2b3e
000001e0: ac28 db3d 11e2 9abd a911 f4bc 0b98 2cbc
000001f0: 4395 993c bf07 b73d ff5f 72bd 478e 053e

fc1.3.weight f4 [3, 128]
-0.10965367 0.10953223 0.008273153 -0.07473122 -0.09036813 -0.099264406 0.016160537 0.0860931
0.11169157 0.068946525 -0.09011487 -0.07411611 0.027021134 -0.118608035 0.09873603 0.028884549
-0.0033094017 -0.040508535 -0.06842924 -0.0920815 -0.037628025 0.004332279 -0.005391313 0.097502254
-0.05437685 0.01593489 -0.14884622 -0.077833585 0.05157745 0.068944104 0.07018653 0.07048427
0.044017084 -0.06820639 -0.014256593 -0.03327029 -0.10115619 -0.09102392 0.0331287 -0.024442948
0.07353565 0.062434398 -0.073007986 -0.057794638 -0.10131162 -0.1380667 -0.07371839 -0.011267905
-0.016993022 -0.07590957 0.09970864 -0.035963573 -0.036325816 -0.13422112 0.09463276 0.101301454
0.06062778 -0.09683387 0.10874864 0.09423554 0.0005130727 -0.037803944 -0.005410432 -0.12758069
0.001288381 -0.06790193 -0.044067584 -0.049164094 0.103789866 0.024766095 -0.0035864396 -0.04794717
-0.0107354345 -0.13127567 -0.01255003 0.10116068 -0.121908806 -0.10597885 -0.10038032 0.06491959
0.06233515 -0.03875947 -0.07721759 -0.058329377 0.09724138 -0.012318609 -0.05912991 0.05965326
0.019173188 -0.07483202 -0.028941737 -0.053071924 -0.09285525 0.022690224 -0.07264551 -0.063360155
-0.060593635 -0.029401096 0.035288215 0.0058874968 0.059660833 0.077271156 -0.022152897 -0.02465564
-0.11201008 -0.09513125 -0.10172269 0.032949403 -0.0726746 -0.13826682 -0.07698289 0.015919833
0.0065839835 0.013612881 0.085930735 -0.025090659 0.07994154 0.028660428 0.072035365 -0.03169765
-0.050681796 0.036704443 0.09052371 -0.09311469 -0.05642797 0.03562733 0.026735058 -0.03128866
0.14698793 -0.12449212 0.0602522 0.048572037 0.16111657 -0.09457029 -0.08542755 -0.013572131
0.05749886 -0.08918429 0.07287254 0.13078363 0.14170757 -0.10005084 0.0971293 0.009437288
-0.117398575 0.16968037 0.123705976 0.048350476 -0.120791785 0.17957002 -0.0034559823 -0.04718425
-0.12260437 -0.06129382 0.028094238 0.124431215 0.051130805 -0.08066034 0.083350286 0.017670367
-0.064744525 0.112816066 0.13556787 -0.039919652 0.09044943 0.08632747 -0.10297585 0.070887096
0.019835075 -0.116934404 0.1509792 -0.0051848567 -0.06815134 0.09431973 0.10736715 0.065175444
0.057360042 -0.09187474 -0.022539755 -0.11919129 0.007869254 0.026366407 -0.026505366 0.039075945
-0.07287904 0.09693035 -0.03165841 0.05711253 -0.11928631 -0.053764626 0.109109744 0.043844882
-0.031037347 -0.05630945 0.118865564 -0.1357968 -0.13734914 -0.11077032 -0.03929165 -0.0677855
0.06440904 0.13650374 0.14765231 -0.04223658 -0.015380187 0.13338894 -0.03655177 -0.09724736
-0.15571022 0.066766925 0.11857542 0.16684788 -0.11488518 -0.11326478 -0.08327094 -0.101505935
-0.039236683 0.13875528 0.008416991 0.119197935 0.06010909 -0.10253013 0.122254714 -0.12625429
-0.0005733338 -0.01939658 0.09676554 -0.11699253 -0.12487708 -0.06247035 0.07598094 -0.10497853
0.043890733 0.13878872 0.11961111 -0.13209793 -0.022270795 0.106420316 0.19003008 -0.10474242
0.07478358 -0.07621139 0.088850334 0.12015349 0.02635317 -0.054845527 -0.050872836 0.14813744
0.1307723 -0.08969701 -0.083632685 -0.12458265 0.12284885 0.07745212 -0.12052042 0.122282684
00000000: 1a92 e0bd 6f52 e03d 1e8c 073c af0c 99bd
00000010: ed12 b9bd 234b cbbd 1a63 843c 9451 b03d
00000020: 8dbe e43d d633 8d3d 258e b8bd 30ca 97bd
00000030: 6d5b dd3c c5e8 f2bd 1e36 ca3d 4a9f ec3c
00000040: 8ce2 58bb 47ec 25bd a124 8cbd 3a95 bcbd
00000050: d81f 1abd caf5 8d3b 9da9 b0bb 43af c73d
00000060: 43ba 5ebd e389 823c 256b 18be 3767 9fbd
00000070: e042 533d 9132 8d3d f5bd 8f3d 0f5a 903d
00000080: 424b 343d cbaf 8bbd 7c94 69bc 6d46 08bd
00000090: fa2a cfbd c06a babd f6b1 073d 943c c8bc
000000a0: dc99 963d 36bb 7f3d 3685 95bd 12ba 6cbd
000000b0: 777c cfbd 5b61 0dbe abf9 96bd 059d 38bc
000000c0: f334 8bbc 7a76 9bbd 0b34 cc3d 8a4e 13bd
000000d0: 61ca 14bd 4371 09be d2ce c13d 2377 cf3d
000000e0: d654 783d d650 c6bd 9bb7 de3d 90fe c03d
000000f0: ba7f 063a 4fd8 1abd fe49 b1bb 83a4 02be
00000100: e5de a83a 2b10 8bbd 3680 34bd 4a60 49bd
00000110: c88f d43d 44e2 ca3c 790a 6bbb 4064 44bd
00000120: ade3 2fbc 216d 06be a49e 4dbc 552d cf3d
00000130: 53ab f9bd 700b d9bd 3294 cdbd 90f4 843d
00000140: 2453 7f3d 40c2 1ebd 4124 9ebd c9ea 6ebd
00000150: 7d26 c73d fed3 49bc 3432 72bd fa56 743d
00000160: 1711 9d3c 8841 99bd 3917 edbc f261 59bd
00000170: e52a bebd d9e0 b93c 2bc7 94bd f8c2 81bd
00000180: 0831 78bd 91da f0bc 608a 103d e7eb c03b
00000190: eb5e 743d 5740 9e3d fe79 b5bc a0fa c9bc
000001a0: 8a65 e5bd 2cd4 c2bd fc53 d0bd f4f5 063d
000001b0: 6cd6 94bd d195 0dbe 35a9 9dbd 4f6a 823c
000001c0: 75be d73b 9008 5f3c 74fc af3d ed8a cdbc
000001d0: 64b8 a33d 46c9 ea3c 4787 933d 65d5 01bd
000001e0: b797 4fbd 6657 163d 7f64 b93d eab2 bebd
000001f0: 0421 67bd f7ed 113d 7b03 db3c 8a28 00bd
00000200: 0184 163e baf5 febd 03cb 763d 79f3 463d
00000210: befb 243e 11ae c1bd a4f4 aebd a55d 5ebc
00000220: ed83 6b3d 41a6 b6bd 333e 953d 25ec 053e
00000230: ca1b 113e 74e7 ccbd baeb c63d db9e 1a3c
00000240: aa6e f0bd b1c0 2d3e 8f59 fd3d 260b 463d
00000250: af61 f7bd 34e1 373e c37d 62bb 4644 41bd
00000260: 0018 fbbd 3b0f 7bbd e325 e63c cbd5 fe3d
00000270: 896e 513d 4031 a5bd 8eb3 aa3d 72c1 903c
00000280: c798 84bd 1c0c e73d 4ed2 0a3e ca82 23bd
00000290: 8d3d b93d 75cc b03d 01e5 d2bd 412d 913d
000002a0: 2b7d a23c 4e7b efbd 4b9a 1a3e bbe5 a9bb
000002b0: ee92 8bbd b42a c13d 4fe3 db3d b47a 853d
000002c0: 5df2 6a3d d328 bcbd 4ba5 b8bc 901a f4bd
000002d0: 0bee 003c 5dfe d73c c821 d9bc 190e 203d
000002e0: 9b41 95bd 6b83 c63d 40ac 01bd d4ee 693d
000002f0: 624c f4bd 4c38 5cbd ee74 df3d b196 333d
00000300: 0942 febc bda4 66bd ca6f f33d 510e 0bbe
00000310: 41a5 0cbe 8ddb e2bd 48f0 20bd 20d3 8abd
00000320: e3e8 833d a3c7 0b3e 2b32 173e 4400 2dbd
00000330: 2efd 7bbc 1c97 083e 4fb7 15bd a029 c7bd
00000340: 8072 1fbe 19bd 883d abd7 f23d 2cda 2a3e
00000350: ec48 ebbd 5df7 e7bd f489 aabd 58e2 cfbd
00000360: a5b6 20bd dd15 0e3e 6be7 093c 0c1e f43d
00000370: f334 763d 51fb d1bd ae60 fa3d ce48 01be
00000380: c84b 16ba 94e5 9ebc 032d c63d c899 efbd
00000390: 8ebf ffbd e9e0 7fbd e59b 9b3d fcfe d6bd
000003a0: c5c6 333d a11e 0e3e abf6 f43d ae44 07be
000003b0: 3e71 b6bc e5f2 d93d 3f97 423e 3283 d6bd
000003c0: 2228 993d b814 9cbd 2af7 b53d 0813 f63d
000003d0: 9ae2 d73c b4a5 60bd 0960 50bd 57b1 173e
000003e0: 2ce9 053e 11b3 b7bd 9d47 abbd 3025 ffbd
000003f0: 2e98 fb3d 389f 9e3d 69d3 f6bd 586f fa3d

fc1.3.bias f4 [3]
0.013603343 0.07523558 0.08616539
00000000: 8ee0 5e3c 1d15 9a3d 7b77 b03d

exp_avg f4 [64, 60, 3]
-0.0003044428 -0.0002953515 0.00015055871 -0.0002663767 -7.8105244e-05 0.0004358805 -0.00023369191 -2.2575889e-05
0.00049395306 -0.00036980872 -3.5837296e-05 0.00021794 -0.0004453932 -0.00017952072 0.00022251367 -0.00024624675
8.173563e-05 0.00019713053 -2.1823458e-05 0.00014849697 0.00014817015 -2.9229515e-05 0.00045815387 0.00036028185
-1.7444549e-05 0.00085127464 0.00037439266 -7.02205e-06 0.0009871938 0.0003860743 0.00012990186 0.0009415575
0.00033183602 0.00028107432 0.00050812896 7.279264e-05 0.00025141676 0.00015964337 0.0002195289 0.00022174192
-3.985747e-05 0.00029110382 0.00030568623 0.00030890168 0.00047795547 0.0004177091 0.0009004451 0.0004105639
0.00049227197 0.0012849016 0.00038721174 0.00048067622 0.0009795314 0.00028951268 0.00043173306 0.00029139215
0.00013212995 0.00048375083 -5.040994e-06 0.00035712708 0.00037011612 -3.5523244e-05 0.00046425196 6.593621e-05
-0.00015437385 0.00022406621 2.6765456e-05 -0.00027609567 2.973062e-05 -8.3673505e-05 -0.00062674447 -0.0002833212
3.721871e-05 -0.0005283444 6.7425775e-05 0.00016095107 -0.00024049397 0.00031166078 0.00029302074 0.00011156277
8.8174995e-05 0.00013887433 0.0001819213 0.00020361452 -6.948581e-05 6.092488e-05 0.00036719968 -0.00030794725
-0.00012273878 0.00045876545 -0.00038488922 -0.00019665797 0.00074543926 -0.00021063612 0.000109007444 0.0011425917
-7.0493843e-06 0.0005585455 0.0012498735 4.073583e-06 0.0006562305 0.00092555984 -0.00034092725 0.00021042085
0.00021437231 -0.0006210846 0.00016536286 3.9036775e-05 -0.00051695696 0.00034067794 0.00022057266 -0.00023421562
0.00063800946 0.000513865 4.4345015e-06 0.0004217174 0.00034357372 0.0001340815 0.00020285552 5.389668e-05
0.0001867734 0.00017815242 -0.00026091037 0.00011795164 0.00019056442 -0.0005006311 0.00026033845 0.0004009471
-0.00047905135 0.00037643235 0.00033801518 -0.0006717902 0.00044839887 3.7658778e-05 -0.000682609 0.0002776765
-0.00039382675 -0.00079120917 0.00011800178 -0.0005829012 -0.00058873 0.00025318933 -0.0003662802 -0.00017949875
0.00037800084 9.864443e-05 0.00028095717 0.0003964399 0.00012815195 0.00048490075 0.00037750608 -0.00033844291
0.00010965748 0.0002680823 -0.0007544795 -4.072163e-05 0.00021708338 -0.00049528346 0.0002292753 0.00016081148
-0.00024334817 0.00032552987 -5.996108e-05 -0.00031360812 0.00031884015 -4.629685e-05 -0.00041356013 0.00052701094
-0.0003093485 -0.00042398708 0.0010289452 -0.00018171889 -0.00044511413 0.0007766097 -3.1814994e-05 -0.00011048443
0.0011394947 4.5954555e-05 0.0002477991 0.0016192374 9.8393764e-05 0.00013096754 0.00084298983 6.1010043e-05
0.00011674954 0.00060009066 5.8344638e-05 -3.432236e-06 0.0003450697 6.892824e-05 1.8818164e-05 0.00013781055
0.00012278992 0.00016460003 -3.1808973e-05 0.0002222497 0.0004910656 -0.00025646505 0.00025695167 0.0005024631
-0.00040801283 0.00023098166 0.0004549877 -0.00052192685 0.00016596785 0.0002488827 -0.0006700436 6.88805e-05
5.226377e-05 -0.00059902493 -1.0170775e-05 -0.00013488403 -0.00060860586 -4.2988308e-05 -0.00024816568 -0.0006823717
-8.503712e-05 -0.00022241972 -0.00056466484 -3.762136e-05 -2.8714143e-05 -0.0005868142 -3.0808053e-05 0.00015608127
-0.0007392472 -1.3518183e-05 0.00037773146 -0.00072228105 -7.3620545e-06 0.00045399147 -0.00056717376 1.637349e-05
9.679323e-05 -0.000376512 1.9905698e-05 -0.0003163791 -0.0002500914 -1.0261958e-05 -0.00027890643 0.00010028815
-5.9338032e-05 -7.544805e-05 0.00018413783 -0.00012669613 1.6578115e-05 0.00018066219 -8.094455e-05 5.1490457e-05
0.0001587069 -6.457817e-05 -1.224206e-05 0.00033816366 -4.333986e-05 -6.712974e-05 0.00058162265 3.4711832e-06
00000000: 9f9d 9fb9 68d9 9ab9 4cdf 1d39 7aa8 8bb9
00000010: 6fcc a3b8 e486 e439 320b 75b9 5a61 bdb7
00000020: a17c 013a e3e2 c1b9 0150 16b8 d386 6439
00000030: aa83 e9b9 ba3d 3cb9 8f52 6939 ae1a 81b9
00000040: 7b69 ab38 d3b4 4e39 8511 b7b7 dab5 1b39
00000050: 1f5e 1b39 e831 f5b7 5f34 f039 36e4 bc39
00000060: e255 92b7 1328 5f3a 224a c439 f39e ebb6
00000070: ba64 813a 046a ca39 4436 0839 dbd2 763a
00000080: 47fa ad39 285d 9339 f533 053a 40a8 9838
00000090: 96d0 8339 f165 2739 5731 6639 6583 6839
000000a0: a22c 27b8 4b9f 9839 8344 a039 15f4 a139
000000b0: 1996 fa39 f7ff da39 d90b 6c3a f440 d739
000000c0: d00b 013a 256a a83a ae02 cb39 4503 fc39
000000d0: 9f63 803a bcc9 9739 3b5a e239 fec5 9839
000000e0: 5d8c 0a39 f09f fd39 cf25 a9b6 c93c bb39
000000f0: 250c c239 cbfe 14b8 d866 f339 3c47 8a38
00000100: 6adf 21b9 51f3 6a39 6186 e037 efc0 90b9
00000110: 0566 f937 df79 afb8 1c4c 24ba ba8a 94b9
00000120: 491b 1c38 9880 0aba f066 8d38 f9c4 2839
00000130: 1c2d 7cb9 6766 a339 94a0 9939 cef6 e938
00000140: 97ea b838 cb9e 1139 21c2 3e39 5b81 5539
00000150: e9b8 91b8 9789 7f38 b584 c039 fb73 a1b9
00000160: 71b3 00b9 7586 f039 f5ca c9b9 f935 4eb9
00000170: 9569 433a 34de 5cb9 ed9a e438 04c3 953a
00000180: c089 ecb6 5b6b 123a ccd2 a33a d0af 8836
00000190: e206 2c3a 45a1 723a 7bbe b2b9 6ba4 5c39
000001a0: 21c9 6039 48d0 22ba 4165 2d39 6bbb 2338
000001b0: 6584 07ba 059d b239 8649 6739 c797 75b9
000001c0: 1740 273a e5b4 063a 14cc 9436 f419 dd39
000001d0: af21 b439 3b98 0c39 9db5 5439 1f0f 6238
000001e0: 9ad8 4339 6dce 3a39 ccca 88b9 ce5c f738
000001f0: 3fd2 4739 c93c 03ba 097e 8839 3536 d239
00000200: 2f29 fbb9 e55b c539 a137 b139 141b 30ba
00000210: 1417 eb39 cef3 1d38 1df1 32ba 1c95 9139
00000220: 887a ceb9 2669 4fba b977 f738 d6cd 18ba
00000230: 0055 1aba 7fbe 8439 4c09 c0b9 d437 3cb9
00000240: 6a2e c639 53df ce38 6f4d 9339 43d9 cf39
00000250: 8760 0639 473a fe39 02ec c539 0a71 b1b9
00000260: e9f7 e538 668d 8c39 43c8 45ba 84cc 2ab8
00000270: e0a0 6339 e9d5 01ba 9f69 7039 819f 2839
00000280: 472b 7fb9 e1ab aa39 b87e 7bb8 c56b a4b9
00000290: 002a a739 dd2e 42b8 1ad3 d8b9 1b27 0a3a
000002a0: 0e30 a2b9 954a deb9 acdd 863a cb8b 3eb9
000002b0: 355e e9b9 6595 4b3a 1771 05b8 e0b3 e7b8
000002c0: 195b 953a 54bf 4038 08eb 8139 973c d43a
000002d0: c058 ce38 5554 0939 17fc 5c3a 09e5 7f38
000002e0: 6fd7 f438 674f 1d3a 14b7 7438 5e55 66b6
000002f0: 79ea b439 918d 9038 b3db 9d37 3d81 1039
00000300: 2bc1 0039 7c98 2c39 a06a 05b8 b30b 6939
00000310: dbba 003a 2876 86b9 78b7 8639 bab7 033a
00000320: 8eea d5b9 ab33 7239 6a8b ee39 ebd1 08ba
00000330: a807 2e39 787c 8239 dda5 2fba f073 9038
00000340: cc35 5b38 e207 1dba 25a3 2ab7 a86f 0db9
00000350: d98a 1fba 584e 34b8 3c1c 82b9 31e1 32ba
00000360: f555 b2b8 5739 69b9 0406 14ba a1cb 1db8
00000370: 27df f0b7 6fd4 19ba e537 01b8 bfa9 2339
00000380: 0aca 41ba 27cc 62b7 420a c639 7657 3dba
00000390: 9107 f7b6 b405 ee39 63ae 14ba cd59 8937
000003a0: 78fd ca38 9666 c5b9 29fb a637 afdf a5b9
000003b0: b31e 83b9 c62a 2cb7 303a 92b9 ca51 d238
000003c0: bae1 78b8 dd39 9eb8 1f15 4139 bcd9 04b9
000003d0: 3b11 8b37 2370 3d39 c6c0 a9b8 75f7 5738
000003e0: 8f6a 2639 246e 87b8 3f63 4db7 8f4b b139
000003f0: d2c7 35b8 01c8 8cb8 0978 183a 79f2 6836

exp_avg_sq f4 [64, 60, 3]
5.0156103e-07 6.170547e-07 3.4657567e-06 5.0149623e-07 8.911168e-07 2.898831e-06 4.825373e-07 8.799371e-07
2.1441424e-06 6.5753386e-07 9.3863065e-07 3.2300352e-06 5.439202e-07 2.6518085e-06 6.407646e-06 5.02411e-07
7.2959697e-06 9.4453435e-06 3.536305e-07 5.6596905e-06 8.416441e-06 2.3663414e-07 1.3937607e-06 5.0988024e-06
5.1712476e-07 6.483721e-07 3.1460565e-06 5.9582544e-07 7.8335535e-07 2.931959e-06 2.660731e-07 2.1561743e-06
4.9871737e-06 4.3753374e-07 4.0830114e-06 5.5634523e-06 5.5142226e-07 3.4987584e-06 4.112848e-06 3.3769967e-07
1.23648e-06 1.8479735e-06 3.4711505e-07 1.1759986e-06 1.7566999e-06 7.953201e-07 1.7039997e-06 2.6886164e-06
9.2898875e-07 1.2262386e-06 2.3658174e-06 8.727253e-07 9.485622e-07 2.1472438e-06 6.256918e-07 8.6409955e-07
2.0605341e-06 3.2762668e-07 1.5844464e-06 2.8133768e-06 3.246005e-07 3.2012151e-06 3.7871746e-06 3.615077e-07
4.108301e-06 4.22467e-06 3.805701e-07 3.1444781e-06 3.8658436e-06 3.8857112e-07 1.7305304e-06 3.8401986e-06
4.4581384e-07 9.3204216e-07 3.4810716e-06 5.100126e-07 1.2191917e-06 4.6525115e-06 6.930991e-07 1.2455627e-06
3.3348945e-06 6.388826e-07 7.7780265e-07 2.3412695e-06 7.13111e-07 1.2589684e-06 2.1704611e-06 8.6705364e-07
1.5179014e-06 1.8238933e-06 5.592367e-07 7.2197946e-07 2.070598e-06 2.4964916e-07 1.0646012e-06 5.4240095e-06
2.4983282e-07 5.2947817e-06 1.0558157e-05 3.339375e-07 1.0655458e-05 1.0480164e-05 5.217446e-07 3.2742814e-06
4.809182e-06 8.776851e-07 8.9804206e-07 2.2587676e-06 6.420348e-07 2.2117322e-06 1.5321783e-06 2.6170318e-07
1.3884378e-06 1.7805886e-06 2.2997101e-07 1.658719e-06 2.0928367e-06 3.275234e-07 2.428222e-06 1.9298625e-06
2.9959472e-07 1.4677609e-06 1.4275461e-06 3.4100466e-07 9.4386525e-07 1.8754257e-06 3.142e-07 7.815849e-07
3.5017554e-06 4.394575e-07 7.6288455e-07 6.272926e-06 4.8571036e-07 8.4834596e-07 6.8707523e-06 3.5790615e-07
9.783047e-07 7.018699e-06 2.0490572e-07 2.6688297e-06 8.147313e-06 2.0922293e-07 3.7287627e-06 7.3817905e-06
2.4987463e-07 2.557157e-06 5.420319e-06 4.431959e-07 1.0373244e-06 3.629777e-06 5.486762e-07 5.900243e-07
2.5271797e-06 4.5298438e-07 1.0389072e-06 2.1571975e-06 6.35872e-07 3.26913e-06 2.3052517e-06 8.9973156e-07
2.892488e-06 1.6152597e-06 9.967766e-07 1.7903359e-06 2.139518e-06 1.0682974e-06 1.7995543e-06 2.7059225e-06
1.0571634e-06 2.628138e-06 2.7837602e-06 4.837273e-07 2.441733e-06 2.550055e-06 3.595156e-07 7.145884e-07
2.7780077e-06 3.6802524e-07 1.3254281e-06 3.930554e-06 2.005406e-06 1.1770454e-07 3.7477847e-07 1.4744513e-06
2.3438174e-07 2.7552716e-07 1.8209754e-07 1.3736309e-07 2.1090788e-07 3.6070935e-07 2.2757902e-07 2.9269165e-07
3.2622208e-07 4.4820212e-07 3.1054785e-07 1.4431357e-07 6.22063e-07 7.174615e-07 1.9184358e-07 4.0449032e-07
1.1590048e-06 9.163083e-08 1.9154493e-07 7.016124e-07 1.6714799e-07 1.6161712e-07 6.1499134e-07 1.6203602e-07
1.4613327e-07 3.4750886e-07 8.894749e-08 1.928026e-07 2.6612992e-07 9.668571e-08 3.4211922e-07 2.9153128e-07
2.5527208e-07 4.7045836e-07 4.4821502e-07 1.465371e-07 5.274838e-07 3.7600878e-07 1.9019174e-07 4.1732943e-07
5.848166e-07 3.2511662e-07 3.664169e-07 8.637658e-07 5.1830636e-07 3.6498207e-07 8.5378514e-07 1.66243e-07
4.5375825e-07 8.835135e-07 4.48348e-08 4.4990952e-07 8.9731464e-07 2.099721e-07 2.1971002e-07 1.0471036e-06
1.7262434e-07 1.02714516e-07 1.1366903e-06 1.4116789e-07 8.2342424e-08 1.0580436e-06 1.962328e-07 7.512716e-08
6.7330745e-07 3.161362e-07 7.3784264e-08 5.5069495e-07 1.9194728e-07 1.1028622e-07 3.6982922e-07 2.3923203e-08
00000000: 03a3 0635 ada3 2535 3f95 6836 8f9e 0635
00000010: 1535 6f35 8a89 4236 b687 0135 d134 6c35
00000020: 16e4 0f36 6281 3035 35f6 7b35 95c3 5836
00000030: e901 1235 b9f5 3136 4301 d736 6cdd 0635
00000040: e7cf f436 7177 1e37 9bda bd34 5fe8 bd36
00000050: 5734 0d37 7f15 7e34 4111 bb35 6116 ab36
00000060: 8bd0 0a35 cb0b 2e35 d720 5336 d0f0 1f35
00000070: c547 5235 acc2 4436 cfd8 8e34 cbb2 1036
00000080: 7f57 a736 2ee6 ea34 cd00 8936 b1ad ba36
00000090: 7305 1435 36cc 6a36 1801 8a36 174d b534
000000a0: 21f5 a535 e307 f835 215b ba34 01d7 9d35
000000b0: c0c7 eb35 fb7d 5535 fcb4 e435 146e 3436
000000c0: 9f5f 7935 3d95 a435 6fc4 1e36 3a45 6a35
000000d0: b3a0 7e35 5e19 1036 37f5 2735 78f4 6735
000000e0: b547 0a36 abe4 af34 2aa9 d435 72cd 3c36
000000f0: c144 ae34 75d4 5636 2a27 7e36 3d15 c234
00000100: 09da 8936 a4c1 8d36 2851 cc34 b905 5336
00000110: 58b7 8136 cf9c d034 9244 e835 0edb 8036
00000120: 3058 ef34 7331 7a35 5b9c 6936 cde7 0835
00000130: 1ca3 a335 c51c 9c36 680d 3a35 352d a735
00000140: 0dcd 5f36 ae7f 2b35 31ca 5035 b41e 1d36
00000150: 9d6c 3f35 d3f9 a835 3da8 1136 79bf 6835
00000160: b2ba cb35 7fcc f435 741e 1635 0dce 4135
00000170: 9af4 0a36 8507 8634 6be3 8e35 e3ff b536
00000180: c320 8634 d4a9 b136 f022 3137 0548 b334
00000190: d8c4 3237 f6d3 2f37 040e 0c35 babb 5b36
000001a0: 8f5e a136 109a 6b35 fb10 7135 5595 1736
000001b0: 4c58 2c35 456d 1436 3fa5 cd35 3680 8c34
000001c0: 5c5a ba35 8ffc ee35 f3ed 7634 27a1 de35
000001d0: a972 0c36 79d6 af34 89f4 2236 c982 0136
000001e0: fcd7 a034 e1ff c435 1c9a bf35 5313 b734
000001f0: ed5d 7d35 23b7 fb35 52af a834 1bce 5135
00000200: b3ff 6a36 94ee eb34 07c9 4c35 067c d236
00000210: c361 0235 e4b9 6335 508b e636 3f26 c034
00000220: 4b4e 8335 2a82 eb36 0e04 5c34 251a 3336
00000230: 71b0 0837 c3a6 6034 a83b 7a36 19b1 f736
00000240: 8226 8634 9f9b 2b36 30e0 b536 61f0 ed34
00000250: 323a 8b35 1897 7336 be48 1335 2962 1e35
00000260: 9e98 2936 b331 f334 9470 8b35 5fc4 1036
00000270: cbb0 2a35 3a63 5b36 ecb3 1a36 1585 7135
00000280: 911c 4236 e7cb d835 fcc8 8535 794b f035
00000290: a494 0f36 6b62 8f35 3788 f135 6597 3536
000002a0: dce3 8d35 115f 3036 a3d0 3a36 7dd9 0135
000002b0: a7dc 2336 9c21 2b36 7303 c134 24d2 3f35
000002c0: cf6d 3a36 0195 c534 5de5 b135 34e3 8336
000002d0: 9d94 0636 c1c4 fc33 2935 c934 c3e5 c535
000002e0: 5daa 7b34 2aec 9334 9786 4334 147e 1334
000002f0: eb75 6234 84a7 c134 725c 7434 3c23 9d34
00000300: 9f23 af34 6ea0 f034 5fb9 a634 9df4 1a34
00000310: d8fb 2635 9497 4035 90fd 4d34 ba28 d934
00000320: 1a8f 9b35 95c6 c433 78ab 4d34 7056 3c35
00000330: 4a79 3334 fa88 2d34 e215 2535 1ffc 2d34
00000340: cfe8 1c34 4191 ba34 6603 bf33 2d05 4f34
00000350: 9ee0 8e34 88a1 cf33 82ac b734 c183 9c34
00000360: 540c 8934 4e93 fc34 34a2 f034 d057 1d34
00000370: 6998 0d35 41de c934 8237 4c34 520d e034
00000380: 4afc 1c35 b08b ae34 f5b7 c434 89dd 6735
00000390: be21 0b35 c1f2 c334 ab2f 6535 8780 3234
000003a0: 0f9c f334 962a 6d35 6290 4033 188b f134
000003b0: fede 7035 b174 6134 6ee9 6b34 358a 8c35
000003c0: 9e5a 3934 e793 dc33 6290 9835 ef93 1734
000003d0: 3ad4 b033 1a02 8e35 10b4 5234 9855 a133
000003e0: 56bd 3435 6eb9 a934 5473 9e33 78d3 1335
000003f0: 111a 4e34 7ed6 ec33 f18c c634 ae7f cd32

exp_avg f4 [64]
-8.022326e-10 -2.4205266e-10 -9.404031e-11 -5.1100967e-11 3.0412395e-11 -1.7916077e-10 7.714354e-09 1.0726902e-08
-2.3153191e-11 -1.5001305e-08 1.4586556e-08 -1.6865359e-10 2.331409e-10 -1.27454385e-08 2.9245127e-11 5.258808e-10
7.252756e-09 -9.754834e-09 2.9852568e-12 -5.0524753e-09 -7.58498e-10 2.0446528e-10 8.092812e-12 8.127971e-09
-1.179755e-09 -3.0916516e-11 1.507558e-11 2.2454932e-11 6.428952e-09 1.0886352e-08 -4.6931827e-09 -1.9812127e-09
-1.4167536e-08 -1.344968e-08 -3.3532285e-11 -3.8016333e-11 1.6419573e-10 -3.719009e-09 2.2635466e-10 -1.0145091e-10
-1.12910875e-10 1.6916986e-10 -1.9666244e-09 -1.1366516e-10 -2.6614173e-11 1.7429248e-12 8.151289e-09 1.2912384e-10
-1.05840865e-08 -5.5836535e-09 -1.38114284e-08 -6.2833547e-09 4.7283804e-12 5.74406e-09 5.248977e-09 -7.704911e-09
6.334971e-09 -5.556977e-11 7.8913465e-13 1.1803888e-10 1.8661416e-11 3.1957666e-11 2.0551356e-10 -2.210575e-09
00000000: 1a84 5cb0 e211 85af fdcb ceae 93be 60ae
00000010: 50c1 052e 46fd 44af 1688 0432 6a49 3832
00000020: 5aa8 cbad 38dc 80b2 5a98 7a32 c46f 39af
00000030: aa2b 802f 08f7 5ab2 169f 002e 928d 1030
00000040: eb33 f931 3796 27b2 9b11 522c 0b9a adb1
00000050: 8d7e 50b0 dccf 602f c95e 0e2d 32a3 0b32
00000060: f024 a2b0 e7f8 07ae 309b 842d 0384 c52d
00000070: a9e5 dc31 af06 3b32 ac41 a1b1 dd25 08b1
00000080: 7b65 73b2 5110 67b2 ff79 13ae 9632 27ae
00000090: fd88 342f 8091 7fb1 2ce1 782f c917 dfae
000000a0: 2c4b f8ae 1501 3a2f 3925 07b1 ccf3 f9ae
000000b0: ca19 eaad 7c4b f52b c009 0c32 21f9 0d2f
000000c0: 4ed5 35b2 56da bfb1 4e47 6db2 f9e4 d7b1
000000d0: 775d a62c 495d c531 7d5a b431 8f5e 04b2
000000e0: ffaa d931 0066 74ae 251f 5e2b fec8 012f
000000f0: c625 a42d 228d 0c2e edf6 612f d9e8 17b1

exp_avg_sq f4 [64]
2.6978406e-17 7.3045714e-18 3.2985498e-18 1.5394675e-17 1.1474347e-18 4.978421e-18 9.104919e-17 1.1929686e-16
3.0807375e-19 1.616654e-16 1.5728534e-16 1.27518924e-17 6.8607865e-18 1.3888738e-16 1.1798478e-18 2.3798327e-17
8.6846546e-17 1.10031916e-16 4.5992806e-23 6.699125e-17 2.6478606e-17 5.951239e-18 4.738445e-20 9.488324e-17
3.1079197e-17 3.3902995e-19 1.8537395e-18 1.5964131e-17 7.9396574e-17 1.2079484e-16 6.3737886e-17 3.9037664e-17
1.5317525e-16 1.4584453e-16 2.850949e-19 9.334685e-19 1.2884564e-17 5.505162e-17 6.4404928e-18 3.3965136e-18
1.8223312e-17 1.2802307e-17 3.8838347e-17 3.545427e-18 1.6792564e-17 6.4234924e-20 9.51681e-17 1.8456266e-17
1.1794778e-16 7.1734836e-17 1.4959545e-16 7.810166e-17 1.6681289e-18 7.3157236e-17 6.876644e-17 9.0992845e-17
7.8515004e-17 1.7289238e-17 1.0587667e-21 3.6445487e-18 1.335751e-19 1.1233169e-18 1.140802e-17 4.1155117e-17
00000000: f6d4 f823 ddbe 0623 d863 7322 a6fd 8d23
00000010: db54 a921 dbab b722 f5f1 d124 388a 0925
00000020: cada b520 3463 3a25 7056 3525 1c3b 6b23
00000030: 4c1e fd22 5220 2025 641d ae21 3680 db23
00000040: 2741 c824 61b7 fd24 5668 5e1a a778 9a24
00000050: d738 f423 dd8f db22 49c4 5f1f 2ec9 da24
00000060: d753 0f24 c220 c820 26c8 0822 3d3e 9323
00000070: 7713 b724 5844 0b25 35f8 9224 8a07 3424
00000080: 5b99 3025 b525 2825 534a a820 71c1 8921
00000090: a2ad 6d23 7be1 7d24 bc9c ed22 549e 7a22
000000a0: 9414 a823 2f29 6c23 3a1c 3324 9ccd 8222
000000b0: 52e2 9a23 a1ab 971f 5571 db24 a03a aa23
000000c0: 0afc 0725 c668 a524 c978 2c25 1517 b424
000000d0: 212c f621 69b0 a824 8b90 9e24 b2d0 d124
000000e0: 140b b524 0f77 9f23 0eff 9f1c ca75 8622
000000f0: 99b2 1d20 b6c5 a521 da70 5223 63cb 3d24

exp_avg f4 [64]
-0.00086421 -0.00034971634 -0.0009817109 -0.0005754772 -0.00044596606 -0.0019335245 -0.0006954519 -0.0011058482
-0.0009368511 -0.0010499912 -0.0018332191 -0.00047655185 -0.0013471256 -0.0001600327 -0.0008652367 -0.00056350406
-0.0011128598 -0.00032342217 -0.0005556049 -0.00060660974 -0.00023080992 -0.00196258 -1.7153376e-05 -0.00032550955
-0.0009183663 -0.0015286496 -0.001994201 -0.00041195354 -0.0014947435 -0.00025838488 -0.0013211214 -0.00066169427
-0.0007038651 -0.0008506078 -0.0009684494 -0.00016302128 -0.00026082335 -0.0001245475 -0.00029350806 -0.0010909422
-0.00061501935 -0.0009168528 -0.0003223798 -0.0007470046 -5.6895227e-05 -0.00106973 -0.0016277281 -0.0005444146
-0.0005094 -0.001925059 -0.002627547 -0.0006539321 -0.0008484827 -0.001570758 -0.00011121919 -0.00046888654
-0.0016166718 -0.0003300176 -0.00044178433 -0.00036966952 -0.00045755625 -0.00068517675 -0.0017147416 -0.0006627445
00000000: 278c 62ba 225a b7b9 c0ac 80ba 9fdb 16ba
00000010: 8dd0 e9b9 516e fdba fd4e 36ba 1cf2 90ba
00000020: 0397 75ba dc9f 89ba a048 f0ba b5d9 f9b9
00000030: 0992 b0ba 73ce 27b9 0dd1 62ba 1eb8 13ba
00000040: 61dd 91ba fd90 a9b9 03a6 11ba e404 1fba
00000050: 9105 72b9 a19e 00bb 98e4 8fb7 27a9 aab9
00000060: 85be 70ba f85c c8ba 24b1 02bb 78fb d7b9
00000070: 45eb c3ba d577 87b9 7a29 adba 8d75 2dba
00000080: 9683 38ba 53fb 5eba 8adf 7dba b1f0 2ab9
00000090: 1ebf 88b9 f798 02b9 fce1 99b9 f2fd 8eba
000000a0: 4039 21ba f358 70ba 1605 a9b9 a1d2 43ba
000000b0: c9a2 6eb8 2f36 8cba 7e59 d5ba 0cb7 0eba
000000c0: 4189 05ba 4352 fcba ec32 2cbb a46c 2bba
000000d0: b66c 5eba e4e1 cdba 593e e9b8 e3d4 f5b9
000000e0: 81e6 d3ba 3606 adb9 4a9f e7b9 34d0 c1b9
000000f0: 29e4 efb9 6f9d 33ba 2ec1 e0ba 08bc 2dba

exp_avg_sq f4 [64]
1.1641141e-06 1.3463142e-07 1.167065e-06 2.389156e-07 2.9975166e-07 2.7335927e-06 1.0201427e-06 4.842437e-07
8.9887453e-07 4.5125697e-07 2.1774297e-06 8.138804e-07 4.5040633e-07 2.9953227e-07 9.4677637e-07 1.0730058e-06
3.9834575e-07 7.1925257e-07 1.1156286e-07 1.4796522e-07 5.1721764e-07 2.2762288e-06 2.39029e-07 9.0707994e-07
6.3831374e-07 1.088259e-06 6.055422e-07 1.5122173e-07 3.0454403e-06 3.4893242e-07 1.5169522e-06 6.830508e-07
3.9011644e-07 8.301187e-07 2.3261538e-07 3.9844113e-07 1.7435018e-07 9.722222e-07 1.8022075e-07 2.5501768e-07
1.5829322e-06 2.1954928e-07 3.7123144e-07 7.666684e-07 9.327998e-08 6.6741245e-07 4.2367571e-07 4.070601e-07
2.5217125e-06 4.790687e-07 6.0156663e-06 6.3814167e-07 5.056339e-07 3.099516e-06 1.04545734e-07 7.86769e-07
2.161584e-06 2.5262344e-07 9.141362e-08 2.1010968e-07 3.7905264e-07 7.034571e-07 1.4617299e-06 4.1093247e-07
00000000: a83e 9c35 348f 1034 0ca4 9c35 4f44 8034
00000010: 8eed a034 c472 3736 d6eb 8835 f9fc 0135
00000020: 304a 7135 4944 f234 f51f 1236 6f79 5a35
00000030: 60cf f134 67cf a034 fa25 7e35 3304 9035
00000040: 39dc d534 a912 4135 5594 ef33 5fe0 1e34
00000050: edd6 0a35 50c1 1836 e553 8034 0f7e 7335
00000060: 9658 2b35 4b10 9235 8b8c 2235 835f 2234
00000070: 4460 4c36 e854 bb34 159a cb35 e55a 3735
00000080: 3271 d134 53d5 5e35 d4c4 7934 55e9 d534
00000090: 0335 3b34 4d7d 8235 b482 4134 5de9 8834
000000a0: 2375 d435 3fbd 6b34 a94d c734 0dcd 4d35
000000b0: 3651 c833 3c28 3335 8c75 e334 ea89 da34
000000c0: b13a 2936 5a99 0035 2eda c936 c34c 2b35
000000d0: e6ba 0735 4801 5036 a082 e033 5b32 5335
000000e0: bb0f 1136 4da0 8734 2b4f c433 829a 6134
000000f0: 9980 cb34 34d5 3c35 a830 c435 219e dc34
